best-model2000iter-5layers-withBN-20innerIter.pth.tar (torch, 467866 bytes, 22 tensors)

module.model.0.weight f4 [64, 3, 3, 3]
00000000: 2a17 a1bd 2045 2a3e f33f 043e d1c5 1b3d
00000010: b6f5 c33d 370c d0bd 70d8 14be 5880 6e3d
00000020: d3be c03d 1311 2e3e d825 203d 33e8 9d3d
00000030: 28f6 a5bd eddd 03be 2538 723d e670 4c3e
00000040: 477f 083e 0457 9dbd 86a2 40bc fbec a0bc
00000050: b525 1cbe d63b 473e a3cf 6ebc 8219 f33d
00000060: d800 b7bd e628 033e 1ef3 88bd 8f3c efbd
00000070: a3c1 2abd ac92 003e e918 1f3c cfb1 21be
00000080: 4ecb 2c3d 8eab c03d 8157 1b3e faba a63c
00000090: d873 34be fc73 f4bd 0c26 cabb bd89 403e
000000a0: e63c 1e3e 4b43 03bd 9ad1 e3bd 136f 443d
000000b0: 9696 ddbd 1b17 e7bd 33b1 2c3e 6b5e 6b3d
000000c0: 5c16 c73c e42b b0bd 73df c0bd 8435 e93c
000000d0: f830 b3bc cb8a 3f3d 7eac d4bb fe91 15be
000000e0: aefc f23b d2b7 3d3e 1121 303d 68d4 783c
000000f0: c4f6 83bd b473 d5bd 9102 ce3d e1fc 1cbe
00000100: 5451 06bd 0613 98bc 44a1 10be a605 323e
00000110: 77b6 b8bd 8025 91bd ce4b 5bbd 1be3 033e
00000120: e0df 14be 47f8 873d 4827 e43d 6a2c e03c
00000130: 75df cc3d 8d07 f3bd d884 7b3d 9ce4 223c
00000140: dbe4 d23d 7977 043e be7d cabd 4b86 133e
00000150: f30a 0bbe 9bcd 323e d11b ab3d 6501 01bd
00000160: cab1 cb3d e507 13be 3dc5 10bd ca83 a43d
00000170: 094e 03be e553 febd 341a 4d3e a131 453e
00000180: 341f 2bbe cdaf 1abe 7857 2dbe 0763 453d
00000190: f781 d6bd 4edd 513c b835 90bd f15e 333e
000001a0: 0dfa dabc 8574 3d3d 41c9 84bb dc09 fbbd
000001b0: c290 2bbd 1e22 1d3e 5582 2c3a 81e8 e43d
000001c0: 1c4c 05be c0be ed3d 1f35 e4bd 3d61 60bd
000001d0: e5fd 16bc 2b23 213e a20b a2bd 3fdb c93d
000001e0: 89d0 0c3e c825 f0bc 6dae 043d 0df3 2cbe
000001f0: 090d 213e a408 afbd 954f 9cbd 4d19 24be
00000200: 32c1 c23d 6d50 893b 0162 a03c 4845 0d3e
00000210: b68a ec3d 36a9 a13d 2744 173d 987b 49bc
00000220: e9fb 223d eaa3 913d 8ece ccbd 84ff 11bc
00000230: 2640 d13d d0de 163e 54a7 f5bd cd32 383d
00000240: b06c 85bd c9f8 833d 45cb ec3d 3028 14be
00000250: f14c babc 0a97 8b3d a56e 1d3e 9986 11be
00000260: 012e 2cbe ff2f f6bd ed1e fabd 970f 9a3d
00000270: e2e8 cb3d bfaa 34be 8760 25bd 5977 e8bd
00000280: 6a01 18bd 7a67 e73d ab6b 7ebd ee1a a03d
00000290: d021 a7bc 457d 063e 4024 febd 4547 553a
000002a0: 112c c33d eaed 50bd 61ae 80bd dd1b 303e
000002b0: d389 ce3c c850 05be ea91 6bbd 9e71 22bd
000002c0: 50b7 dd3d cd28 3d3e ef62 493e cccf c2bd
000002d0: 223e 023e ce76 903d 307e b63d ba14 863d
000002e0: ef27 0d3e f37f 273d 2b38 d3bd 1367 c7bd
000002f0: feaa 1d3e 0c14 9c3c cf52 ba3d 1744 e4bd
00000300: 9b4a a23d 431c 0bbe e09a 06be 7890 233e
00000310: f5a4 1b3e 31ce 0fbe 56c9 b2bd a138 35be
00000320: ac1f 383d a102 d2bd 4c97 bd3c fba8 c6bc
00000330: e90e e2bd 34cd 04be 41f4 e23d f903 22bd
00000340: dc33 3e3e 3847 23be 5b08 35bd bbe2 563e
00000350: 0665 9f3d 84ea 093e f395 373e bbea 09be
00000360: ce23 6a3d d17f fa3d 2e0c f63d 3b5f a33d
00000370: 0bf5 61bd d9b9 17be d645 313e df8e 2ebe
00000380: 1ab8 a23c 9a3f 213e 9ded 13be 6d2e 8fba
00000390: 89f4 b33b 7688 00bd bef0 093e b029 ed3d
000003a0: 69cb 473d 2afa bfbb 4f27 043c a93b 013d
000003b0: d921 4b3b 76fe 1e3e 526e b5bd 2164 fd3d
000003c0: 019e 13be 5838 193e c8d9 cbbd 58bc bbbd
000003d0: 4967 d03d 9c44 34be 0810 13be f801 083e
000003e0: 733e 20be 2f79 633d 0c31 15bd e23d 273e
000003f0: d3be 01be 394e d63d c916 0e3d ab02 e0bc
-0.07865746 0.16627932 0.1291502 0.03803045 0.0956835 -0.1015858 -0.1453569 0.058227867
0.09411397 0.16998701 0.03909859 0.07710304 -0.08103591 -0.12877627 0.059135575 0.19964942
0.13329802 -0.076826125 -0.011757499 -0.019644251 -0.15248759 0.1945642 -0.014575872 0.118700996
-0.08935708 0.1280857 -0.06686996 -0.116814725 -0.041688573 0.12555951 0.009710529 -0.15790485
0.042186074 0.094077215 0.15170099 0.02035283 -0.17622316 -0.11936185 -0.0061690863 0.18802543
0.15452918 -0.032046597 -0.11123963 0.04795749 -0.108197376 -0.11283704 0.16864471 0.05746309
0.024302654 -0.086021215 -0.094176196 0.028467901 -0.021873936 0.046763223 -0.0064902892 -0.14606473
0.0074153757 0.18527153 0.043000285 0.01518736 -0.06443551 -0.10422459 0.10059083 -0.1533084
-0.032792404 -0.018563759 -0.14124018 0.17384967 -0.090191774 -0.07087231 -0.05353909 0.12879603
-0.14538527 0.06639152 0.11140305 0.027364928 0.100035585 -0.118666746 0.061405987 0.0099422
0.10297557 0.129362 -0.09887265 0.14406697 -0.13578396 0.17461245 0.08354915 -0.03149547
0.0994602 -0.1435848 -0.03534435 0.08032949 -0.12822737 -0.12418345 0.20029527 0.19257213
-0.16711122 -0.15106125 -0.16927898 0.048190143 -0.104740076 0.012809111 -0.07041496 0.17516686
-0.026730562 0.0462537 -0.0040523116 -0.1225774 -0.0418861 0.15345046 0.00065807 0.11177159
-0.13017315 0.11608648 -0.111429445 -0.054780234 -0.009215807 0.15736072 -0.07912375 0.09856271
0.13751425 -0.02931489 0.032392908 -0.16889592 0.15727629 -0.0854657 -0.076323666 -0.16025276
0.09509505 0.0041904957 0.019577982 0.1379596 0.115498945 0.078936026 0.03693023 -0.012297533
0.03979102 0.07111342 -0.10000335 -0.008911017 0.102173135 0.14733434 -0.11994806 0.044970322
-0.06514871 0.064439364 0.11562208 -0.14468455 -0.022741767 0.06815918 0.15374239 -0.14211501
-0.16814424 -0.12020873 -0.1221293 0.07522505 0.09956528 -0.1764326 -0.04037526 -0.11350889
-0.037110724 0.112990335 -0.0621144 0.078176364 -0.020401865 0.13133724 -0.12409258 0.0008135925
0.095298894 -0.051008143 -0.0628326 0.17198129 0.025212204 -0.13019097 -0.0575122 -0.039659135
0.1082598 0.18472596 0.19666646 -0.0951229 0.12719014 0.0705391 0.08910787 0.06546922
0.13784765 0.040893506 -0.103134476 -0.09736457 0.1539726 0.019052528 0.09097826 -0.111457996
0.07924386 -0.13585 -0.13145018 0.15973079 0.15199645 -0.140435 -0.08729808 -0.17697383
0.04495208 -0.10254408 0.023143433 -0.024250498 -0.11038 -0.12968904 0.11081744 -0.03955457
0.1857447 -0.15945137 -0.04419742 0.20984928 0.077829406 0.13468367 0.17928295 -0.13468449
0.057163052 0.1223141 0.12014042 0.07977148 -0.05516533 -0.14816989 0.17311797 -0.17046688
0.019863177 0.15746918 -0.14446111 -0.001092387 0.0054917973 -0.03138014 0.13470742 0.11580217
0.04877797 -0.0058586793 0.0080660125 0.031551037 0.0030995517 0.15526757 -0.088589326 0.12372614
-0.14415742 0.149629 -0.09953648 -0.09166783 0.1017595 -0.17604297 -0.14361584 0.13282001
-0.15648822 0.05553549 -0.036423728 0.163322 -0.1267045 0.104641385 0.0346897 -0.027345022

module.model.0.bias f4 [64]
00000000: 4291 9d3d 0d2a 25ba e23b 59bd e2ff 20bc
00000010: 71bf efbd b4d3 5b3c 13a1 13be d161 6dbd
00000020: 94db 4f3e d61b 7e3d 12e6 0b3d 7dfe c83d
00000030: 9026 7f3e 2f70 b23d 0484 953d 9038 283d
00000040: 07eb bf3d 1cce a73d d5e3 20be 23a1 393e
00000050: e20b b83d b4a6 553e f347 8d3d 2f3a aa3c
00000060: 3396 0fbe 4db6 e53c b706 ce3d 8f18 39bc
00000070: 543c 38be b66e bb3d 3084 8cbd fab1 053e
00000080: 1367 553e 6928 0abe 0027 3f3d 0819 7a3e
00000090: 6cac 20be 47b5 143d 42a0 02bc 3722 323e
000000a0: 106b 843d 9185 43bc b179 4f3e 801c 46bd
000000b0: d075 2cbd 1cf1 32bd 20b3 773e ccd6 313e
000000c0: 5d6e 2cbe 07b7 1e3d 75f6 78bc 5b3f 363e
000000d0: bad1 353e 0aa5 b9bd 2c9d c53d c200 89bc
000000e0: 1fd1 2dbe e0bc 44bd ba9f 3e3d de16 973d
000000f0: 994d 133e a0f7 d6bd 7fdf d93c e2e6 38bd
0.07693721 -0.00063005165 -0.053035624 -0.009826632 -0.117064364 0.013417173 -0.14416914 -0.057954613
0.20298606 0.062038265 0.03415496 0.09814165 0.24917054 0.087128036 0.073005706 0.041069567
0.09371 0.08193609 -0.15711911 0.18127875 0.089866415 0.20864373 0.06898489 0.020779697
-0.1402214 0.02804103 0.100598745 -0.011297359 -0.17991763 0.09151976 -0.0686115 0.13056174
0.20840101 -0.13491978 0.046668053 0.24423611 -0.15690774 0.036305692 -0.007972779 0.17395864
0.06465733 -0.0119337 0.20261265 -0.048367023 -0.042104542 -0.04368697 0.24189425 0.17367095
-0.16838975 0.038748767 -0.015195479 0.17797606 0.17755786 -0.09064682 0.09649119 -0.016723994
-0.16974305 -0.048031688 0.046539046 0.073774084 0.1438507 -0.104964495 0.026595829 -0.045142062

module.model.2.weight f4 [64, 64, 3, 3]
00000000: 7cad 3c3c 6516 c5bc 0892 be3c 2834 a4bc
00000010: 63e4 a7bc ae29 e2bc 315b a93c b21c 76bb
00000020: a229 9c3c ba11 f23c 533b 05bd 8efe 4dbc
00000030: 2f0f d6bc 8705 0b3d 4c9c ff3c 76ed a6bc
00000040: 9b92 b1bc aa48 a4bc 30f6 0a3d 7d27 86bc
00000050: 5c72 bd3c 8d5f d03c 5120 4a3b d6db 123d
00000060: 9801 c33b 4692 1a3d 8599 063d 5b02 da3c
00000070: 5983 8fba 9104 133d 5704 3c3b 408c 663c
00000080: df76 0ebc 0c7a 9a3a 8c51 39bd 4832 eb3b
00000090: 9ff0 51bc 4b63 d5bc b9da d23c f33d 773c
000000a0: 7763 593b 0344 ae3c dc61 b9bc 0011 623c
000000b0: 8efb 1cbb fe3c 14bd 5f0a 1ebd dbe3 0abc
000000c0: 5833 43bd 5e70 b53c 98f1 12bd 095f b1bc
000000d0: c6c1 1bbc d784 87bc 2441 1a3b 673f cfbc
000000e0: e33d dcbc 6056 073d 0bb1 9bbc 7141 2c3d
000000f0: cb33 2fbc ae26 14bc 092f 003c 5640 663c
00000100: 0f62 2bbc cd79 d73c 0e17 4fbc 815e 053b
00000110: ddbe 913c bc56 e9bc f8c7 9b3c 0ff6 a43c
00000120: b2ce 41bc aa8d 23bd d0eb cf3b a8a5 b7bc
00000130: 8384 e43c f3b3 4b3b cc7c 5dbc 2669 e0bc
00000140: e25c 80bc 207d 13bd e8e2 88bc 83bd 873b
00000150: 525a 5e3c bf7a 81bb 9267 89bc e05a acbc
00000160: 90a4 2f3c b259 cebc e3da 2dbc 93f1 95bc
00000170: 23ba 87bc b23e 073d 8c33 273d c45e 62ba
00000180: 7e72 583c d9ea ae3b a266 5d3a 2404 16bd
00000190: fea2 773c bebc 29bc 58e0 12bd fdee 1a3c
000001a0: 95ce 663c c21c 85bb 111c 01bd ac90 353c
000001b0: 944f 093b e0b3 013c 5cf9 d4bc d06f debc
000001c0: 1530 733c 97bb 093d dd10 3639 90b3 1f3c
000001d0: 434d 9cbc 337f 01bd 2329 f0bc 9feb 1ebd
000001e0: 71b8 2b3d ed75 2e3c 103e 1cbd 27a0 a73a
000001f0: 65a0 303c d784 f4bc 71c2 8ebc a768 e3bb
00000200: 379e 593c c15a 00bd 3db3 20bc 5844 093d
00000210: 0afe f93c 20c3 17bc 2bbb 803c 8408 f9bc
00000220: 2d09 dd3b 7a38 c8bc 6a1a 98bb a4a9 813c
00000230: 05b5 1bbc 80d6 463d b1e2 9c3c 14a9 d0bc
00000240: 941a ee3c 44df 493d 9087 e83c da6a 073b
00000250: ecda a7bc cbf1 3b3d fdef 8cbc 649b 213b
00000260: bbeb 993c dde8 7e3c 2399 b03c ecbc c4bb
00000270: a988 1ebc cd99 463a f264 f2bc bb00 a0bb
00000280: 7fd4 aebc 8764 3ebd dab5 94bb f8a7 a4bc
00000290: fd38 d43c d6b4 d63c bef2 b4bb 700e 313d
000002a0: c8ad de39 506f c23b 6d34 d8bc 23e4 03bd
000002b0: 3682 7e3c e903 343b ed32 803c c9e1 173d
000002c0: 2d6f 273c d1bd 8b3c 86a9 60b9 f869 173d
000002d0: a769 7d3c 5e3b 013d 2faa 7a3c b679 1b3d
000002e0: 6743 ca3c de60 343b 0d5d e93b cbe4 a839
000002f0: c5e6 a6bb d3f5 433d f680 2b3b 6dd6 19bc
00000300: 6cef 103b 98db 1ebc a124 0cbc 0379 00bb
00000310: 0ea3 3c3d 6c56 253c 9d2a 86bb 459a d0bc
00000320: 843f b1bc 6ca4 20bd 93ed c7bb 8ec1 dfbc
00000330: 361f 82bc b193 333d 7a60 7cbc 963f 983c
00000340: c4e4 e33b c73b bfbc ffa6 e63c 1e19 16bb
00000350: 8dda 103d 1c61 c9bc dd6f 8b3c 1f9d 31bc
00000360: c3b7 1c3a 36fd e2bc 3288 e1bc 012d eabb
00000370: 06f5 c2bc e32f bfba 0564 0f3c c56d db3b
00000380: 0740 12bd fd1b 153d 4a78 2c3d 518a 13bc
00000390: b9e4 49bc b182 4f3d 2d52 f0ba bbdb 8e3c
000003a0: 94c1 7c3c 082e 8abc a990 1d3d cafb 43bb
000003b0: 43a4 9bbc 0d93 343d b8f6 07bc 01d4 163d
000003c0: 502c 0dbd beb7 753c b573 0c3d eae2 a8bb
000003d0: 9052 613d 60c8 d43a d9ec b73c b4be 60ba
000003e0: b249 a03c 19df 9b3c 0c1c 2f3d 4230 213b
000003f0: 027d fdbc 20eb be3c 0935 1d3b 1c55 13bd
0.011515971 -0.02405853 0.023262993 -0.020044401 -0.020494645 -0.027607765 0.020673366 -0.0037553725
0.01906282 0.029549468 -0.03252728 -0.012572898 -0.026130287 0.03394082 0.031202458 -0.020376902
-0.021676352 -0.02005418 0.03392619 -0.016376251 0.02312582 0.025436187 0.0030842016 0.035854183
0.0059511177 0.037737153 0.03286125 0.026612451 -0.0010949179 0.035893027 0.002868911 0.014071524
-0.008695333 0.001178564 -0.045243785 0.007177625 -0.012813716 -0.026048323 0.02573906 0.015090453
0.0033170858 0.021272665 -0.02262967 0.013797998 -0.002395365 -0.03619098 -0.03858411 -0.008477177
-0.047656387 0.022148307 -0.035874933 -0.021651762 -0.009506648 -0.016542835 0.0023537362 -0.025298787
-0.026884979 0.033041358 -0.01900532 0.042054597 -0.010693501 -0.009042425 0.007823714 0.014053425
-0.010460391 0.026303196 -0.012639774 0.0020350518 0.017791206 -0.028483741 0.019016251 0.020136861
-0.011829065 -0.039930023 0.0063452497 -0.022417858 0.027895218 0.00310826 -0.013518523 -0.027393889
-0.01566929 -0.036008 -0.01670976 0.0041424646 0.013571339 -0.0039514 -0.016773019 -0.021039426
0.010720387 -0.025189254 -0.010611269 -0.018303668 -0.01656825 0.033018775 0.040820643 -0.0008635337
0.013210891 0.0053380546 0.00084457744 -0.036625043 0.015114544 -0.010359941 -0.035858482 0.009456393
0.014087339 -0.004062266 -0.031520907 0.011081856 0.0020951973 0.007916421 -0.02599781 -0.027152926
0.014843007 0.033626165 0.00017363155 0.009747401 -0.01907981 -0.031615447 -0.02931649 -0.038798925
0.041923944 0.010648233 -0.038145125 0.0012788818 0.010780429 -0.0298485 -0.017426701 -0.0069399658
0.01328235 -0.03133655 -0.009808359 0.033512443 0.030516643 -0.00926283 0.015714249 -0.030399568
0.0067454786 -0.024440993 -0.0046418207 0.015827961 -0.009503608 0.048544407 0.019151064 -0.025471248
0.029065408 0.04928519 0.028384954 0.0020663054 -0.020490132 0.04588489 -0.01720428 0.002465927
0.018789163 0.015558449 0.021557396 -0.0060039666 -0.009676137 0.00075760187 -0.02958915 -0.0048828996
-0.02134156 -0.04648259 -0.00453828 -0.020099625 0.02590608 0.026209276 -0.005522101 0.04322666
0.00042472617 0.0059336796 -0.026392186 -0.03219999 0.015533974 0.002746815 0.015649283 0.03708056
0.010219377 0.017058285 -0.00021425457 0.036966294 0.015467084 0.031550758 0.015299364 0.03795787
0.024690343 0.0027523558 0.007121688 0.0003221392 -0.005093428 0.047841858 0.0026169396 -0.009389502
0.0022115363 -0.00969591 -0.008553655 -0.0019603379 0.04605394 0.010091405 -0.0040944354 -0.025464186
-0.021636732 -0.039219305 -0.006101319 -0.027313974 -0.015884023 0.04384202 -0.015403861 0.018585008
0.006954761 -0.023343934 0.028155802 -0.0022903155 0.035364676 -0.024582438 0.017021114 -0.010840683
0.00059783104 -0.027708631 -0.027530763 -0.007146478 -0.023798477 -0.0014586415 0.008751874 0.006696435
-0.035705592 0.036403645 0.042106904 -0.009005145 -0.012322598 0.050661746 -0.0018335037 0.01743876
0.015427012 -0.016867653 0.038468037 -0.0029904717 -0.018999225 0.04408555 -0.008298568 0.036823276
-0.034466088 0.014997421 0.034290034 -0.0051540034 0.05501038 0.0016234033 0.022451805 -0.0008573339
0.01956639 0.01902728 0.042751357 0.0024595414 -0.030943397 0.023305476 0.002398791 -0.03596984

module.model.2.bias f4 [64]
00000000: 5e33 933c 40e3 77bc e9ca b13c 3128 123d
00000010: 3e3c 07bc ef0b ca3c 9b65 283d cbc1 12bd
00000020: d856 873c 9600 593c d3f6 9dbc 82b7 e0bc
00000030: 1435 883c 9d61 a0bc 4107 f43c 8825 ed3b
00000040: 993e 47bc 9c13 673c 2ed1 da3c 816b b23c
00000050: c845 20bd 61ac cebc 351f c3bc 3451 5e3c
00000060: 4b1c ec3c 8dcb 1bbc 0df2 4cbb a447 9b3c
00000070: 7dda 27bc 0224 843c 725e ed3b 30f2 0c3d
00000080: 8452 933c 7ac3 74bc 8174 373b 0bd4 efbc
00000090: f9fc 1abd 03bf 66bc a2d5 063d 4d8e 933b
000000a0: 32fa cf3c bc06 6f3c 2408 1a3d c474 18bc
000000b0: 200f 1b3d 9074 c3bc c4ca 9f3c cd2a 9cba
000000c0: a1d1 29bd f64d 213c aba3 c6bc d8fc b4bc
000000d0: 0e9f 393c a087 0abd 9d30 d83c 8585 3a3c
000000e0: b4fd 093d 21f3 de3b ecfe 343b 11e4 053d
000000f0: bbe2 863c f574 cbbb 77ad dd3c f358 db3c
0.01796883 -0.015129864 0.0217032 0.03568286 -0.008254109 0.024663894 0.041112524 -0.035829347
0.016520903 0.013244769 -0.019282734 -0.027431253 0.016626872 -0.019577796 0.029788615 0.00723714
-0.012160921 0.014103796 0.026711073 0.021779777 -0.03912905 -0.025228681 -0.023818592 0.013569165
0.028822085 -0.0095089795 -0.0031272203 0.01895506 -0.010244963 0.016130451 0.007243925 0.034410655
0.017983682 -0.014939183 0.0027993026 -0.029275915 -0.03783891 -0.014083627 0.03291858 0.0045030476
0.025387857 0.014589008 0.03760542 -0.009305183 0.03785622 -0.023859292 0.019505866 -0.0011914611
-0.041459683 0.0098452475 -0.024247965 -0.022093222 0.0113294255 -0.03382075 0.026390368 0.011384373
0.033689216 0.0068038856 0.0027617766 0.032688204 0.016465535 -0.0062090107 0.027060254 0.026775813

module.model.3.weight f4 [64]
00000000: 5a44 823f 4b07 813f 96f3 793f 9a1b 773f
00000010: e68f 7f3f 05c1 7a3f ef29 803f fe07 833f
00000020: f898 7d3f 4fa6 7d3f 8a11 7d3f dd3e 813f
00000030: acee 783f b847 7d3f a3a3 813f b50e 7b3f
00000040: 6d9d 803f f75f 833f 4e56 803f da2c 833f
00000050: a2b2 7f3f 3cf4 7e3f 790b 7c3f 288a 813f
00000060: 1ebe 7b3f 5906 803f 08db 7b3f d9f0 7d3f
00000070: 71d9 7d3f dc84 803f 69bd 7e3f 10c5 7f3f
00000080: 4349 783f a94d 813f d366 833f 3a45 813f
00000090: 464d 7d3f 33ee 7d3f c388 7c3f 9ca5 783f
000000a0: a58e 793f 6571 7d3f f522 783f f074 7d3f
000000b0: d5a0 7f3f a31f 7a3f 9b8d 823f 61f8 823f
000000c0: e2ba 823f ce02 813f cdd1 843f da5d 7e3f
000000d0: 365a 7d3f ef21 813f 1d7f 823f 6e9d 7a3f
000000e0: a570 823f 0975 853f f492 813f 1532 803f
000000f0: b040 813f edd3 7b3f 1293 7e3f 9998 7e3f
1.0177109 1.0080351 0.9763731 0.9652649 0.99828947 0.97950774 1.0012797 1.0236814
0.99061537 0.9908189 0.9885489 1.0097309 0.97239184 0.9893756 1.0128063 0.98069316
1.0048043 1.0263661 1.0026338 1.0248063 0.9988195 0.9959142 0.98455006 1.0120287
0.9833697 1.0001937 0.9838109 0.9919563 0.99159914 1.0040545 0.99507767 0.9991007
0.9698679 1.0101825 1.0265754 1.0099251 0.98946035 0.9919159 0.9864618 0.971277
0.97483283 0.9900115 0.9692834 0.9900656 0.99854785 0.97704524 1.0199465 1.0232049
1.0213282 1.0078981 1.0376526 0.99361956 0.98965776 1.0088481 1.0195042 0.9789647
1.0190626 1.0426341 1.0122972 1.0015284 1.0097866 0.9837025 0.9944316 0.99451596

module.model.3.bias f4 [64]
00000000: 4822 0f3d 29bc 163d 82c1 413d 3c68 083d
00000010: 85ba 933c 3ab4 f13c 8ede 723d 3bed 6f3d
00000020: 94dc 913c 0707 ee3c cf19 0c3d e006 553d
00000030: e3fc 2a3d cff6 2d3d 7a28 ba3c 90ec 6d3d
00000040: 240c 513d 7ef9 563d b3c8 7a3d 3ad3 1d3d
00000050: e0d8 8e3c 69ea 1e3d 3383 833d eafc 9f3c
00000060: 755f 5f3d aefc 063d 5f35 533d ccd9 783d
00000070: 1ada c73c 1f3a 813d e754 f63c bf15 243d
00000080: a266 643d 54f0 533d 91fb 3f3d 3d14 f63c
00000090: ed9e 433d 8ccc 8e3d d162 033d 4652 b43d
000000a0: 07d4 2e3d a2f5 893d 6df4 603d 5a09 653d
000000b0: 043c 233d 7d9b 693d 7d36 f13c 3e5b 3d3d
000000c0: 9349 2d3d 4ef0 333d 4dc2 0f3d f207 d63c
000000d0: 24c3 303c 7993 cc3c 2a94 eb3c c26e 833d
000000e0: 6720 0b3d 0b65 353d fca5 023d 09a0 ab3c
000000f0: 4a24 223d 18f8 1e3d 9d63 a43c 677e 353d
0.034944803 0.036800537 0.047303684 0.03330253 0.018033275 0.029504884 0.059294276 0.05857585
0.017805375 0.029056085 0.0342043 0.05200851 0.041745078 0.042471703 0.022724379 0.05808693
0.05103697 0.052484028 0.061226558 0.03853152 0.017437398 0.03879777 0.06421509 0.019529779
0.054534394 0.032955818 0.05156457 0.060754582 0.024395991 0.06309914 0.030069781 0.0400598
0.05576194 0.051742867 0.04687077 0.030038947 0.047758985 0.06972608 0.03207666 0.08804755
0.042682674 0.06736304 0.054920603 0.05591712 0.039852157 0.05703305 0.029444927 0.046229593
0.042306494 0.043930344 0.03509741 0.026126835 0.010788713 0.024972664 0.028757174 0.0641761
0.03396645 0.044285815 0.031896576 0.020950334 0.03958539 0.03881082 0.02006703 0.04431

module.model.3.running_mean f4 [64]
00000000: c919 1d3f 3f58 a2be 72d0 803e 1c3c a33e
00000010: d01d 9b3e 0791 6f3e db10 3f3e 666d dcbe
00000020: 0f9a db3e 5727 98be 930c a13e e39a 5b3e
00000030: 29ca 19be 49bf 6fbe 7833 a5be 6532 823e
00000040: e79c bcbe c409 edbe c0da 1d3e 65e4 e7be
00000050: 7f59 3b3e 6ab3 92be b15a 5cbe 872f be3e
00000060: 9612 933e 4baf 94be bd8c 823e ec1f 1d3e
00000070: 3ece 97be dc5f 92be 5d21 85be f86d b93e
00000080: 5f4d 28be 4d34 bbbe d2c2 96be c2c3 d5be
00000090: eda4 a5be d4d2 f13b f6c1 cf3e 9e4a af3e
000000a0: 7517 80be b405 0b3e d99d 053e 6acf 9bbe
000000b0: dccc 54be 9c72 6f3e 63d7 f13e ffc4 fabe
000000c0: bfbd c4be b25e b2be 19b2 fdbe b42d a1be
000000d0: de3c a53e a1e9 bf3e 735b b6be 83a4 cd3d
000000e0: 7b2d 173f 87ce b3be e6b4 dcbe 2718 fe3e
000000f0: 5195 97be cfa0 87be b679 9e3e 1672 70be
0.6136747 -0.3170795 0.2515903 0.31881797 0.30296183 0.23395167 0.18658774 -0.43052214
0.42890975 -0.29717514 0.31454906 0.21445803 -0.15018524 -0.23412813 -0.3226583 0.25429073
-0.36838457 -0.46296513 0.15415478 -0.4529144 0.18295859 -0.28652507 -0.21518971 0.37145635
0.28725117 -0.29039988 0.25498 0.15344208 -0.29649538 -0.2858876 -0.26002017 0.36216712
-0.16435765 -0.3656334 -0.2944551 -0.41750914 -0.3235239 0.007379869 0.40577668 0.34236616
-0.25017896 0.13576394 0.13048495 -0.30431682 -0.20781273 0.23383564 0.4723464 -0.4897842
-0.38426015 -0.34837872 -0.4954994 -0.3148018 0.32273 0.37482932 -0.35616645 0.10041144
0.5905377 -0.35118505 -0.43106765 0.49627802 -0.29606107 -0.26489875 0.30952233 -0.2348102

module.model.3.running_var f4 [64]
00000000: 062b 8e3d 4868 d03c d9f6 153c 8fa8 a23c
00000010: 00b5 cd3c 4c16 4c3c c1b6 1c3c 90f3 aa3c
00000020: 034b d73c 0eaf ba3c ea86 cd3c 4b22 c23c
00000030: 62b3 543c 2ab7 793c 2fca 213d 8edc 583c
00000040: 9955 433c 3bb9 013d 6031 8e3c 8b0c 2f3d
00000050: 0d34 9b3c 8817 ac3c 0d39 433c cd21 ea3c
00000060: cef9 9a3c a60e 6d3c 7f06 973b d6a2 513c
00000070: 1f96 733c 967f 803c cd74 8e3c 3f36 ce3c
00000080: f7e4 233c 3a7e ca3c 35d5 803c 4229 563c
00000090: 968b 6e3c 1f79 203c c804 943c 053b 393c
000000a0: c321 633c 7f69 9d3c f350 ab3b b4d5 573c
000000b0: 3f6e 9f3c d5df 853c deb0 223d 982f 2d3d
000000c0: 6f7f 013d 3f66 e73c 544f 763c bbc4 ca3c
000000d0: b975 9a3c b621 fc3c 2f2b 1e3d 53a0 383c
000000e0: ba56 7e3d 7efe 003d 2b1a 953c 3f50 fe3c
000000f0: a7ed b43c 968e 473c 12e7 933c 95d0 643c
0.069418 0.02544035 0.009153091 0.019855766 0.025110722 0.012456488 0.009565056 0.020868093
0.026280886 0.02278855 0.025088746 0.023697993 0.012982221 0.015241424 0.039499458 0.013236178
0.011922264 0.03167079 0.017357528 0.04273657 0.018945718 0.021007314 0.011915457 0.02858057
0.018917944 0.0144688245 0.0046089287 0.012795171 0.014867335 0.015685838 0.01738968 0.02517235
0.01000332 0.024718393 0.015726665 0.01307136 0.014559647 0.0097945025 0.018068686 0.011305575
0.01386303 0.019215344 0.0052281558 0.013173509 0.01946175 0.016342083 0.039719455 0.042281717
0.03161567 0.028246997 0.015033562 0.024752012 0.018854963 0.030777793 0.0386154 0.011268693
0.062094428 0.031492703 0.018200954 0.031044124 0.022085978 0.012179991 0.018054519 0.013965745

module.model.5.weight f4 [64, 64, 3, 3]
00000000: b04e 24bd 1ce1 2abd c7fd 1dbd bd76 88bc
00000010: c96e 35bd 9984 ddbc d9f9 3fbd c60a 03bd
00000020: 3ca4 03bc 1d7f 8ebc ba9c a13b 4ed9 d83a
00000030: c3f0 d13b ee67 b13c fd56 283d befd d13a
00000040: fda4 07bc d1a4 c6bc a5ad faba 6d39 973c
00000050: fb9c 053d c426 e33c cbb9 e6bb 8e9f c23c
00000060: baf5 4ebc 75ec 40b8 8211 493d 6e96 f13c
00000070: fcf9 a3bc 79cd 293c 19b6 293d 594c d7b8
00000080: 65ac 8e3c d547 1f3a 1b1c 673c d832 49bc
00000090: 2d23 063c 7aac 0a3d 04d3 733c a88e 71bb
000000a0: 57c2 b53c ff6f 3d3a e3b2 2d3a 92cc d53c
000000b0: ff24 f7bc 47b6 c73c 59d2 1cbb 6e36 ffb9
000000c0: d231 77bc 68bb 383c 8bd2 de3c 60be 9b3c
000000d0: cfbe e03b ef53 93bc 1898 63ba 011a 3e3d
000000e0: b1c6 25bb 9d65 dc3c ce6c dabc 1547 a7bc
000000f0: 83ab a33c 3b95 de3c 8137 c2bc b79b dd3c
00000100: b89c 163d ea41 3e3b d8cb 143d c0d9 e9ba
00000110: c02a ba3c e158 963c ab3f c73c 97cb 46bc
00000120: 3c00 1c3d f0a4 08bc 67bd 973c dd96 85bc
00000130: 9906 40bc 6b2e 233c f987 9d3c 3ab2 42bb
00000140: b289 0a3c 2b26 b83c 56d4 4abd f20b fdba
00000150: 2f30 053d f12a 843d 77a6 b1bc 4139 443b
00000160: 760f 8abc d51d dcba 087e 05bd e48e 94bc
00000170: 25e2 d0bc cd84 b2bc 2cca f23b 5a6f b43b
00000180: 586d 133d 5646 f13c 8135 90bc 7df8 fdbc
00000190: f707 38bd ee8a b13c 394b e7bb df03 14bd
000001a0: 3e04 59bc 711c 42bd 51ea 25bc ffa1 0a3d
000001b0: e31d 75bc f64d 023d b8e1 f639 1a23 3f3d
000001c0: 1da6 93bc e2d1 0b3d 4efe 563b 96c5 54bd
000001d0: 2785 09bd 01f1 d5ba 9afa 40bd 63f3 49bc
000001e0: a6b7 133d b406 36bd 7826 813c 8345 e6bc
000001f0: e297 c13c 18cd c53b 43bf 0abc d4bd 82bc
00000200: 06db ccb7 fe4d 85bb 49a7 1fbd 2e4f 553c
00000210: 7d9e 1c3b 4620 61bd 2999 e0bc 71d3 173d
00000220: 92a5 3a3d a717 d53c 41ed 2a3a 1108 9a3b
00000230: 33e6 bd3c 9dc5 99bc 32e0 94bc 410e 5bbc
00000240: 6fee 683c 7402 993c 8670 8dbb fb09 ee3c
00000250: 3590 98bb 78b3 8b37 0ae3 44bc c5c1 1dbd
00000260: 6cb9 08bc c880 ef3c 2291 0fbc 411d 4e3c
00000270: 3a95 863c 10dd 683c b830 a93c 5631 ba3b
00000280: 79d7 b8ba 33bf e6bb b58f a6bc a7f4 30bd
00000290: 40dd 33bc fbe7 b63a 0d53 053d d521 9d3c
000002a0: 3d38 f53c 0d11 89bc d6f3 e7bb b185 27bd
000002b0: 2b31 b0bc 50f5 b83c da69 bf3c 169a c83b
000002c0: e21e ad3c 6ef8 10bd e331 e8bc 4cee c6bc
000002d0: 128b 113d 84a5 b13c 3c93 193c adc4 1fbc
000002e0: 1d00 fd3c 53e5 663c 33ca e0bb 47fa 173d
000002f0: 5c12 143c c77b 8e3c 5837 32bd 46df 5fbc
00000300: f209 0e3d f7d6 833a 3c7d 003c 4a6d 0f3c
00000310: 4097 ebbb 8b59 6d3c 1d7c dcb9 ea54 c4bb
00000320: 2606 a1bc cd93 83bd 22e3 fd3a 0cd4 003d
00000330: 46eb 48bb 7d23 4dbb 191b d5bc a3a7 c03c
00000340: ed67 073c 2339 63bb cae6 e9bb 37f7 673b
00000350: 9111 173b 6e71 a83c 5c8e a73b f667 983c
00000360: 3753 fa3c ce81 fabb fc61 43bd 5092 4ebd
00000370: 8727 273d c774 38bd ae5b 973c 401c d73c
00000380: 6ad1 9c3c 25b9 8fbc 1f07 06bc d061 b2bc
00000390: e4f2 4fbc 35f6 4a3d 6fe2 233d 06c5 07bc
000003a0: fc87 0c3d 1d50 bdbc 390d 0f3d ca1e a0bc
000003b0: ae89 a4bb 6bb6 4ebc 8e13 c2bb 62db b1bc
000003c0: 751d f13c 8ac1 a5bc bb3d eb3c 2ade 97bb
000003d0: 4b02 08bd 522d ba3c f1eb 5abd d6af 79bb
000003e0: 3bed 1a3d 927e 04bd ee29 653c a245 873b
000003f0: 5205 e83b b5d3 43bc 3c66 a5bc 9c7d a5bb
-0.040114105 -0.041718587 -0.0385721 -0.016658181 -0.044295106 -0.027040767 -0.046869133 -0.031992696
-0.008034762 -0.017394597 0.0049320133 0.0016544254 0.006406875 0.021656003 0.041098583 0.0016021056
-0.008279082 -0.024248512 -0.0019125236 0.01846 0.03262041 0.027728446 -0.007041191 0.023757722
-0.012631828 -4.5996585e-05 0.049088962 0.029490676 -0.020016663 0.01036393 0.041433427 -0.0001026622
0.017416188 0.00060760725 0.014105822 -0.0122801885 0.0081870975 0.033855893 0.014881853 -0.0036858711
0.022187395 0.00072264666 0.00066260825 0.026098523 -0.030169008 0.024378909 -0.0023929088 -0.00048677943
-0.015087562 0.01127515 0.027200004 0.019011676 0.0068586837 -0.017984359 -0.00086820265 0.046411518
-0.0025295431 0.026903922 -0.02666321 -0.020419637 0.019979244 0.027170768 -0.023708107 0.02705179
0.036770552 0.0029030987 0.036327213 -0.0017841384 0.022725463 0.018352928 0.024322351 -0.012133501
0.03808616 -0.008340105 0.018522931 -0.016307289 -0.011720323 0.009959797 0.019229876 -0.0029708282
0.008455681 0.022479137 -0.049518906 -0.0019305928 0.032516655 0.06453503 -0.021685822 0.0029941353
-0.016853075 -0.0016793559 -0.032590896 -0.018134542 -0.02549846 -0.02179184 0.0074093547 0.005506438
0.03599295 0.029452484 -0.017603638 -0.031002278 -0.04492947 0.021672692 -0.007058528 -0.036136504
-0.01324564 -0.047390405 -0.010126666 0.033845898 -0.014960739 0.03181263 0.0004708895 0.046664335
-0.018023545 0.034135707 0.0032805386 -0.051946245 -0.03357425 -0.0016322435 -0.047113992 -0.012326094
0.036063813 -0.044439986 0.015765414 -0.028109318 0.023631994 0.006036412 -0.008468452 -0.015959658
-2.4420686e-05 -0.0040681353 -0.038977895 0.013019366 0.0023898177 -0.05496242 -0.027416782 0.03706688
0.045568056 0.026012255 0.0006520339 0.0047006686 0.023181057 -0.018770987 -0.01817331 -0.013370098
0.014217003 0.018677928 -0.0043163924 0.029057493 -0.0046558627 1.6653663e-05 -0.012017021 -0.03851487
-0.008344989 0.029236212 -0.00876263 0.012580217 0.016428579 0.014212862 0.020653114 0.005682151
-0.0014102302 -0.0070418357 -0.020332197 -0.04320207 -0.010978043 0.0013954634 0.032549907 0.019181171
0.029934043 -0.016731763 -0.007078628 -0.040898982 -0.02150782 0.022577912 0.023365904 0.006121884
0.02113289 -0.03539317 -0.0283441 -0.02428355 0.03553302 0.02168537 0.009373482 -0.009751481
0.030883843 0.014092761 -0.0068600415 0.037103917 0.00903758 0.017393006 -0.04350981 -0.013664072
0.034677453 0.0010058571 0.007842358 0.008754084 -0.0071896613 0.014486681 -0.00042054142 -0.005991568
-0.019656252 -0.06424675 0.0019370059 0.031452224 -0.0030657812 -0.003130167 -0.026013898 0.023517435
0.008264524 -0.0034671507 -0.007138108 0.0035395154 0.0023051242 0.0205619 0.005113406 0.01860426
0.030557258 -0.0076448685 -0.047700867 -0.050432503 0.04080918 -0.045033243 0.018476333 0.026258588
0.019142825 -0.017544338 -0.008180409 -0.021775156 -0.012692187 0.049551208 0.040010866 -0.00828672
0.034309372 -0.02310949 0.03492472 -0.019545931 -0.0050212955 -0.012616734 -0.0059227413 -0.021711055
0.029432992 -0.020233888 0.028715959 -0.0046346383 -0.03320531 0.022726689 -0.053447668 -0.003809919
0.037823897 -0.03234727 0.013987048 0.004128174 0.0070807124 -0.01195233 -0.02019035 -0.005050374

module.model.5.bias f4 [64]
00000000: 3a03 923c 8713 feba f652 e23c 1faf a1bc
00000010: dead ab3c df98 17bd de69 583b d83f c0bc
00000020: 0b87 63bc 510d 52bc ba02 0dbc e9dd 183d
00000030: 670b ad3b cf06 f13c ed08 cdbc 1ffb b43c
00000040: dff9 703c 9f90 45bc 1fc1 a9bc c00e 123c
00000050: f010 a5bc a420 06bd 87ad 4ebc 7270 24bd
00000060: fc3b 1dbc 7e6c 013d 6602 a9bc 2026 e53c
00000070: 92a6 23bc 67bf 8d3c 6838 c8bc de16 c53b
00000080: 012a 0abd aae5 24bc a30d 97bc 9921 22bd
00000090: 219a 03bd 3cd2 d53c df49 edba 37d0 9f3c
000000a0: c33a 6dbb 0a77 1d3d 8bb8 ce3c 9dfb 213d
000000b0: 1369 38bc 6b3c d3bb 30f1 ce3c bb29 28bb
000000c0: 9392 a2bc 9d2a 98bb 908c 7f3c a3d2 293d
000000d0: 00c5 6bbc 80c9 063d a2fe ee3c 0fd4 0f3d
000000e0: 3342 8c3c 90b5 bcbc b8b0 083d 2ccf a03c
000000f0: b12a 1e3d 2120 dcbc 3b3a 21bd 6e7a e6bb
0.017823804 -0.0019384482 0.02762745 -0.019736825 0.02095693 -0.037011024 0.0033022086 -0.023467943
-0.013887177 -0.012820558 -0.008606607 0.037321005 0.0052809003 0.029422192 -0.02502867 0.0220924
0.014708011 -0.012058406 -0.02072197 0.0089146495 -0.020149678 -0.032745972 -0.012614614 -0.0401463
-0.009596821 0.031597607 -0.020631026 0.027972281 -0.009988444 0.017303182 -0.02444096 0.006014689
-0.033731464 -0.010064522 -0.01843912 -0.039582822 -0.03212941 0.026101224 -0.001810368 0.019508464
-0.0036198355 0.038443603 0.025234481 0.039546598 -0.01125552 -0.0064464114 0.025261492 -0.002565964
-0.019845283 -0.004643752 0.015597478 0.041460644 -0.01439023 0.03290701 0.029174153 0.035114344
0.01712141 -0.023035794 0.033371657 0.019630037 0.038614932 -0.026870789 -0.039362174 -0.0070336377

module.model.6.weight f4 [64]
00000000: cbbb 7f3f 8553 7f3f 62ee 7d3f 6527 7c3f
00000010: 5896 813f a881 803f ea5c 7e3f 4fc8 7f3f
00000020: 71ce 7f3f 9837 803f fdb7 803f 2f12 813f
00000030: e837 803f 72ac 7f3f 433a 7d3f b6a6 803f
00000040: 6d44 813f ad20 7e3f 1746 7d3f b31f 803f
00000050: f1d5 803f 29c8 803f 2a30 823f 9759 823f
00000060: 93c7 7e3f e6d1 7d3f 720f 7b3f ad44 7e3f
00000070: 05e3 793f 3754 7b3f 9a7a 7c3f c8e6 7c3f
00000080: 4295 7e3f b2be 7d3f 76bb 823f ac17 7e3f
00000090: 20b7 7f3f e4a7 7e3f a83c 7e3f f533 7b3f
000000a0: 172b 7f3f 2e18 803f eb3d 803f 6a78 803f
000000b0: 7e01 823f 30a2 803f 273b 7f3f bad6 7d3f
000000c0: d5a7 803f 8e4e 7d3f 0caf 813f f152 7d3f
000000d0: d753 823f 6c1b 803f 4954 803f 8423 803f
000000e0: 755c 7d3f 8832 7a3f c487 823f 93be 7e3f
000000f0: d2b7 803f d3a5 7e3f 079f 813f 0568 7d3f
0.99895924 0.99736816 0.9919187 0.9849761 1.0124006 1.0039568 0.99360526 0.9991502
0.9992438 1.0016966 1.0056149 1.0083674 1.0017061 0.99872506 0.98917025 1.0050876
1.0099007 0.9926861 0.98935074 1.0009674 1.006529 1.0061084 1.0170949 1.0183591
0.99523276 0.99148405 0.9807044 0.9932354 0.9761203 0.98175377 0.98624575 0.98789644
0.994465 0.991191 1.0213459 0.9925487 0.998888 0.9947493 0.99311304 0.98126155
0.99675125 1.0007379 1.0018896 1.0036747 1.0156705 1.0049496 0.99699634 0.9915577
1.0051218 0.9894799 1.0131545 0.98954684 1.0181836 1.0008368 1.0025722 1.0010839
0.98969203 0.97733355 1.0197682 0.99509543 1.0056098 0.9947178 1.0126656 0.98986846

module.model.6.bias f4 [64]
00000000: 5c70 263d fcd4 e63c 4517 3e3d cfcb 393d
00000010: 8a02 1a3d f755 243d 109b 093d f392 243d
00000020: 732b 153d be7b 873d 279d a73c 6ef6 343d
00000030: b481 4f3d b34c 293d c6a7 bc3c 3a00 d93c
00000040: 02e1 413d d3e4 a53d 0380 133d ab74 373d
00000050: 877a b03c 7dd2 a03c 7955 523d e962 f03c
00000060: a8c3 e83c e62e 7d3d 3de6 5f3d 84f9 9a3d
00000070: df9f a03d 62bb d93c f1d1 503d 5b2a 7d3d
00000080: 8e46 603d f612 bb3c c5af fe3c a5ee 653d
00000090: 65dc 993d 4f16 063d e240 9f3d 9dd5 9e3d
000000a0: 3719 353d 1b8d 173d 44c7 df3c 91ea c13c
000000b0: 309e ae3c ecb6 543d cf41 ae3c 7d9f 573d
000000c0: 73e0 583d d50e 303d d63a f43c 0b0f c53d
000000d0: 354d 253d 1aa2 963d b0a0 d23c 7771 293d
000000e0: 8ce5 523d 8f80 6c3d 4165 873d bdf7 853c
000000f0: 6189 7d3d eeda 093d 51f4 d93c 6df3 493d
0.040634498 0.02817773 0.04640891 0.045360383 0.037600078 0.040121045 0.033595145 0.040179204
0.03641839 0.06615399 0.020460678 0.044180326 0.050660804 0.04133291 0.02302922 0.026489366
0.047333725 0.081002854 0.036010753 0.044788998 0.0215428 0.019631619 0.051351044 0.029344039
0.028413609 0.061812304 0.05466293 0.075671226 0.07842993 0.026578609 0.050981466 0.06180797
0.054754786 0.02283619 0.031089673 0.056135792 0.0751274 0.03273612 0.07776047 0.07755587
0.0442135 0.036999803 0.027316697 0.02367142 0.021315664 0.05193226 0.021271614 0.052642334
0.052948426 0.042982895 0.029813211 0.0962201 0.040356833 0.07355137 0.025711387 0.041367974
0.051488444 0.05773979 0.066111095 0.016353482 0.061898593 0.033656053 0.026605757 0.049304415

module.model.6.running_mean f4 [64]
00000000: c068 bfbd 896e 813e 9cca dabe 81d4 38be
00000010: 879b d13d 190c 57be 6da2 903e 6fe6 3c3e
00000020: 48df 753d aa45 a2be 2688 a73e 56d8 c93c
00000030: 43f2 12be e998 d33e 3708 623e 4f09 2b3e
00000040: 1db1 873c 7c7a 16bd 5035 1dbe 5c80 b1be
00000050: 777d 473e af15 433e dfd7 b5bd d6fe 53bd
00000060: 0cb1 c9bc 146b 97be e5e8 23be af92 8dbd
00000070: 1ad3 c0bd 12ad cd3e 93e0 12be 3eec c8bc
00000080: 8382 1dbe bf43 76be 64b8 30be 2cd2 08be
00000090: 5ba0 bdbd 0254 0b3e a946 4abe 2e75 92bc
000000a0: 6a64 d0bd ca72 18bd 0102 b83e 700c b2bd
000000b0: a562 d0be e559 87be fbe5 e83d 1382 3abe
000000c0: b99c 163d 6993 4bbf 313d 893e f50f 293e
000000d0: 0b9c adbe 573c b7bc 04a1 b33e a774 903d
000000e0: 4b69 eb3d 4d12 1abe c371 a5bd a943 30bc
000000f0: 4217 eb3d cd38 2f3e d7e2 d4bd 5b87 75be
-0.09346151 0.25279644 -0.42732704 -0.18049814 0.102347426 -0.21000709 0.2824892 0.18447278
0.06002739 -0.31693774 0.3272106 0.02463929 -0.14350228 0.413276 0.22073446 0.1670277
0.016563946 -0.036737904 -0.15352368 -0.34668243 0.19481455 0.1905124 -0.08879065 -0.051756702
-0.024620555 -0.29573882 -0.16006811 -0.06912743 -0.094152644 0.40171105 -0.14343481 -0.024526712
-0.15381818 -0.2404928 -0.1725784 -0.13361424 -0.09259101 0.13606265 -0.19753517 -0.017878141
-0.101754025 -0.037218846 0.3593903 -0.086937785 -0.4070026 -0.26435772 0.1137199 -0.18213682
0.036770556 -0.79521805 0.26804498 0.16509993 -0.33908114 -0.02236764 0.35083783 0.070535
0.114946924 -0.15046044 -0.08078339 -0.010758319 0.114790455 0.17111512 -0.10394829 -0.23977415

module.model.6.running_var f4 [64]
00000000: e3b3 c33e 444c 313f bf8d ae3e bdb7 6f3e
00000010: edb2 463f a795 c13e 5398 533f 591e ba3e
00000020: d558 7e3f acd8 7f3e b16e 8d3f fb53 183f
00000030: 9902 3b3f 99cb 753f 8722 043f 28b2 0d3f
00000040: 7b90 a43e aa49 9f3e bc82 293f f3cd 903e
00000050: 5feb 923f 3ba3 c43e e1d6 003f 19d6 463f
00000060: becb 353f 284b c63e ae81 563e 9c11 d93e
00000070: 2ae0 693e ddc1 6e3e 004e 983e d7c8 a73e
00000080: 816c 9a3e d82a 753e 062e 083f 0e59 903e
00000090: 7777 f13e b64e 013f b604 943e 530e 933e
000000a0: 9e94 dc3e 8af6 ef3e 28a6 083f 2c49 393f
000000b0: 469c a63f fa6c d53e 7c67 0c3f d7a2 9d3e
000000c0: a7c4 c23e 4481 4a3e 63cf 963f 3852 a13e
000000d0: 59ab 803f ca99 163f d9cd e83e 24e2 233f
000000e0: 19e3 ac3e 14e8 973e 0faa 013f 1bfd d53e
000000f0: 01dd f63e 15aa 213f 6cd8 063f 739c 4b3e
0.3822318 0.69257 0.3409252 0.23409934 0.7761677 0.37809488 0.82654303 0.36351278
0.99354297 0.24984998 1.1049405 0.59503144 0.7305084 0.9601379 0.51615185 0.5534997
0.3214148 0.3111089 0.6621511 0.28282127 1.147808 0.38405785 0.5032788 0.7767044
0.7101401 0.38729215 0.20947906 0.42396247 0.22839418 0.2331614 0.2974701 0.32770416
0.30160907 0.23942125 0.53195226 0.28192943 0.47161457 0.5051073 0.28909844 0.28721866
0.43082136 0.46867782 0.53378534 0.72377276 1.3016441 0.41684705 0.54845405 0.307883
0.3804066 0.19775873 1.1782039 0.3150804 1.0052291 0.58828413 0.4546955 0.6401694
0.33767012 0.2966925 0.50650114 0.41794667 0.48215488 0.6315015 0.52673984 0.198839

module.model.8.weight f4 [64, 64, 3, 3]
00000000: 6b67 0bbd 2a46 a53c 773d babb 0a81 273c
00000010: 20be 3b3c d5b5 0f3d 58cf fcbc 1ee0 c2bc
00000020: 1f3b a23b 4f8c 403c 7d5c 59bc 40b0 16bd
00000030: 555c d1bc 0fbc 02bc da3c a2bc fd2b d63b
00000040: 4d56 273c e599 10bd 123b a33c a72c 0abc
00000050: b14c 9c3c 7de4 923b 22e4 3abc 4cc3 45bc
00000060: fe37 053d 1fdf 983c 8f95 3c3d c3be 393c
00000070: 313a eebc 90f2 f0ba ae64 e4bc 6c63 2bbc
00000080: 3ec1 29bd 5170 ab3c 0237 34bc 9e00 65bc
00000090: f455 ce3c ecb6 883b bd5d 513c 4548 bd3c
000000a0: 3542 c53c 9895 d63c c3f9 2e3c 15e0 00bc
000000b0: b348 b03c 3fdf 9c3c a58e 3d3c b233 093d
000000c0: 8846 c7bc aece d3bb 697a fbbc ef19 e53c
000000d0: c640 10bd 624e ec3c c5cb 09bb 2276 fe3c
000000e0: 41e6 51bb a201 b3b9 8143 163d 31ed 523c
000000f0: 941e b2bc 75e8 343d a40e 183d cadc 46bc
00000100: 6e96 773c b05f 7abc d5c9 e1bb 84f0 453d
00000110: 642c efbb a008 0ebd 6a2b 27bd 401c a9bc
00000120: fda1 6dbb 2483 eb3b 767f 4c3b 4064 153d
00000130: a296 e23c 48d1 013c 0591 1a3d b860 003d
00000140: 34c4 07bd b798 87bc 0520 04bb c748 b9bc
00000150: 41f0 fbbb e21d 9e3c 1c26 05bd 1152 18bc
00000160: 095d 4b3c a1a3 c4bb 8d80 533b 8148 893b
00000170: 2cc9 b23c 89be ac3c 22e3 863c fdca 8d3c
00000180: 1b41 5e3d 984b 1cbd 9053 033d 8e7b 3bbc
00000190: 579c 4e3b e5da 5f3c d1c0 f6bc 2cdd 2bbc
000001a0: be6d e63c 215f 7d3c da6e c83b 8833 153c
000001b0: 5666 f63b 3f25 293d 8d7f 9dbc bcbc 243b
000001c0: c077 ac3b c77f 973c 0883 da3b 3bb6 6a3b
000001d0: 307a 21bd ebbe 89bc 19d2 be3c 115a 1a3d
000001e0: b675 0b3d bdc6 1cbd fda2 583d 28a9 293d
000001f0: fce5 57bc 1c83 313d 8c75 993c 923d 3f3c
00000200: a912 06bd 1353 f33b b744 00bd a336 4d3d
00000210: a4b9 3d3d 5b9c 08bd b933 1e3d 5cd0 28bc
00000220: 01e5 f0bc 982b 0e3d 1184 5a3d b895 b13c
00000230: 07d8 19bd 506b 0abb ede9 e93c e0b0 093d
00000240: b20f e33c 86a9 83bc b060 a839 2c19 093c
00000250: 6c19 9d3b b021 09bd 453a dbbc d680 90bc
00000260: c3fd 32bd 025d 4c3d 5cb4 20bb cdb1 1ebb
00000270: 4565 0bbd a4c1 79bc d23f c13c a7c6 64bc
00000280: 80be a3bc 3fb3 aebb 4d5d f5bc 70b0 46bd
00000290: b7fb c13c c222 06bc 3952 0cbd 1c2d a63c
000002a0: f5d4 a8bc 6c9e 57bc fb76 debc 95ef eebc
000002b0: 18a6 183d 758f 933c 1070 843c 93a7 733c
000002c0: 5d1f a3bc 265f 84bc 5f7d ccbb 5d28 75bc
000002d0: f4dd ca3c 2a47 213d a88c 0bbd 442e 653c
000002e0: 25e7 d6bc 41e7 963c 13c8 aebc 85ef 51bc
000002f0: ecc2 d4bc 8151 a53c 9f5c b73c efe7 4db9
00000300: 64dd f4bc 5f72 05bb 61de 39bb 3a4b 043d
00000310: 2fa4 3b3b dd51 f1bc b4bd 9b3c f942 913c
00000320: b50c 85bc af26 bbbc e98c 3f3c 5da1 a4bc
00000330: b27c 92bc 5f6f f83c ffff 483c 4cd2 9bbb
00000340: 82d6 02bd a59a 403b ccf2 8e3c 8418 19bc
00000350: f39d 12bd 3853 843c 31f8 72ba daa2 b43c
00000360: 5ff0 c7bb e86e 27bc 30d3 58bc 1405 d63b
00000370: d7b3 903c 157b fb3c 6ac2 24bd 091a 66bd
00000380: 1475 973b e93e 033d b04f f73c 75f2 a93c
00000390: e3d8 6ebc 1fa7 bd3c 8707 01bd bd77 3d3c
000003a0: cb44 52bc 6cc7 c13c a77f 263c 369b 7bbc
000003b0: c397 5ebc dfeb 8bbc 607f 01bc 10b7 093d
000003c0: d164 fcbc 8168 f539 447b ec3c 4564 cb3c
000003d0: 1ab3 fc3c b08a 82bc 1b43 20bc 2efb 40bd
000003e0: 8607 273d f970 313d 7ac0 c13c 8e94 0ebd
000003f0: 583b 3e3d a62a d93c 5c13 ab3c 8679 ecbb
-0.034034174 0.020175058 -0.0056835967 0.010223636 0.011458904 0.035085518 -0.030860588 -0.023788508
0.0049508954 0.011752202 -0.01326668 -0.03678918 -0.025556723 -0.007979407 -0.019804407 0.0065360055
0.010213447 -0.035303015 0.019925628 -0.0084334975 0.019079538 0.0044828043 -0.01140693 -0.012070488
0.0325241 0.01866108 0.046041068 0.011336985 -0.029080482 -0.0018382836 -0.027880039 -0.010460716
-0.041444056 0.02092758 -0.010999443 -0.013977198 0.02518747 0.0041721966 0.012778697 0.02310575
0.024079422 0.026194379 0.010679665 -0.007865925 0.02151904 0.01914942 0.011569654 0.033496566
-0.024325624 -0.006463847 -0.030698018 0.027966468 -0.035218023 0.02884597 -0.0021025997 0.03106219
-0.003202811 -0.00034142757 0.03668547 0.012873934 -0.021743096 0.044167 0.037123337 -0.012137601
0.015111549 -0.015281603 -0.0068905153 0.048325077 -0.007298993 -0.034676194 -0.040812887 -0.020643353
-0.0036259883 0.007187264 0.0031203902 0.03647256 0.027659718 0.007923432 0.037735958 0.03134224
-0.0331461 -0.016552312 -0.0020160687 -0.02261771 -0.0076885526 0.019301359 -0.032507047 -0.00929691
0.012412318 -0.0060009514 0.0032272667 0.0041895513 0.021824442 0.021086948 0.016465727 0.017308706
0.05426131 -0.03815803 0.032062113 -0.011443032 0.0031526291 0.013663028 -0.030121239 -0.010489743
0.028128501 0.015464575 0.00611673 0.009106524 0.0075195236 0.041295286 -0.01922586 0.0025136909
0.0052632987 0.018493546 0.006668452 0.0035814184 -0.039423168 -0.01681467 0.023293542 0.03768355
0.034047805 -0.03827547 0.052889813 0.041421086 -0.013177391 0.043337926 0.018732809 0.011672394
-0.03273264 0.0074256747 -0.03131553 0.050100934 0.04631962 -0.033352237 0.038623545 -0.010303583
-0.029406073 0.034709543 0.053348605 0.021677837 -0.037559535 -0.0021121092 0.028553927 0.033615947
0.027717445 -0.016072046 0.00032115495 0.008367818 0.0047942903 -0.033479393 -0.026761184 -0.017639559
-0.043699037 0.049893387 -0.0024521565 -0.0024214864 -0.034032125 -0.015243921 0.023590002 -0.013963378
-0.019988298 -0.0053314264 -0.029951716 -0.048508108 0.023679597 -0.008186998 -0.0342581 0.020285182
-0.020609358 -0.013160329 -0.027156344 -0.029166976 0.037267774 0.018012742 0.016166717 0.014871496
-0.019912416 -0.016158652 -0.0062405313 -0.014963237 0.024764039 0.039374508 -0.034069687 0.013988081
-0.026233265 0.018420817 -0.021335637 -0.012813454 -0.025971852 0.020180466 0.022383032 -0.00019636725
-0.029890724 -0.002036236 -0.0028361308 0.032298304 0.0028631797 -0.02945798 0.019011356 0.01773213
-0.01624141 -0.022845594 0.01169131 -0.020096475 -0.017881725 0.030326543 0.0122680655 -0.004755294
-0.03194285 0.002938905 0.017449759 -0.009344224 -0.035795163 0.016152963 -0.0009268551 0.02205031
-0.0061016525 -0.010219313 -0.013233945 0.006531367 0.01766388 0.030698339 -0.04022447 -0.056177173
0.004622111 0.032042418 0.030189365 0.020745495 -0.014578077 0.023150979 -0.03150132 0.011564192
-0.012833784 0.023654662 0.010162271 -0.015356829 -0.0135859875 -0.017080246 -0.007903904 0.033621848
-0.030809792 0.00046807903 0.028867371 0.024828086 0.030847121 -0.015935272 -0.009781624 -0.047114544
0.04077866 0.04332063 0.02365135 -0.03480964 0.046443313 0.026509594 0.020883255 -0.007216635

module.model.8.bias f4 [64]
00000000: 0ac7 283d fffc bbbc 8ff8 92bc 2d80 f0bb
00000010: 80d5 afbc 1b00 ffba a92d 203d 9fe1 6b3c
00000020: fd6a 453c ef06 1fbd 5d38 0f3c 6261 cabc
00000030: 7185 ad3c 9bbc 513c 3fc8 cd3a 1f7b d43c
00000040: 650a d43c 33ae 88bc cf82 0e3d fc5c 243d
00000050: 00ff b139 a25b 023c 0792 1c3d bedb a43c
00000060: de6a 413c 6107 77bb 2df4 babc 277e f93c
00000070: 33a2 753c e87a 123d a0c2 df3c 3106 c6bc
00000080: 107b 2abd 92b8 a9bc 7a37 203d 291e dd3b
00000090: e1c1 efbb 5718 ddbc 8bf8 03bd 1c32 82bc
000000a0: de41 5fbc 25d1 44bc eafa fb3c 1407 93bc
000000b0: f3e3 21bd 1a67 1d3d 5c44 133d 372e 253d
000000c0: 5707 8bbc 3760 f13c 288c 083d 41c0 163d
000000d0: be74 e43b 1ee7 023d 59df c8bc d0d6 f63c
000000e0: c877 09bd 1a21 793c bc6e e13c f592 763c
000000f0: e667 13bd 4c54 a1bb 6f9d 993c a880 d6bc
0.041205443 -0.022947786 -0.017940788 -0.0073394985 -0.02146411 -0.0019454987 0.039106045 0.014397054
0.012049434 -0.03882497 0.008741465 -0.024704639 0.021181794 0.012801315 0.0015699937 0.025937615
0.025883863 -0.016684627 0.034792718 0.04012774 0.0003395006 0.007956417 0.0382252 0.020124312
0.011805264 -0.0037693607 -0.02282151 0.030455662 0.014992285 0.035761744 0.027314484 -0.024172874
-0.041621268 -0.020717893 0.039115407 0.00674798 -0.0073168133 -0.026989145 -0.03221945 -0.015893035
-0.013626544 -0.012012755 0.030759294 -0.017947711 -0.03952403 0.038428403 0.035953864 0.040327277
-0.016971273 0.029464824 0.03333679 0.03680444 0.0069719246 0.03195869 -0.024520563 0.030131727
-0.033561498 0.015205646 0.027518623 0.015049686 -0.035987757 -0.004923379 0.018751828 -0.026184395

module.model.9.weight f4 [64]
00000000: 045a 813f fe37 7d3f 9657 7f3f a92b 803f
00000010: 75a6 7c3f 4c12 823f 71fb 7d3f 845b 803f
00000020: 01bb 7f3f 07c1 7f3f fea9 7d3f 9bc6 7d3f
00000030: 0f3b 803f fb79 803f e341 803f c52c 803f
00000040: 7a10 7f3f cd84 7f3f 918e 803f eca2 803f
00000050: f8ca 7d3f 89af 7e3f a286 803f 1d2e 803f
00000060: 8910 7f3f e137 803f fbca 7d3f 841d 7f3f
00000070: c6e6 803f 34b5 7e3f 3d83 7e3f 6fbc 803f
00000080: f709 803f 4379 803f 6eae 7e3f 480f 803f
00000090: 6357 803f 954d 7e3f 4654 7e3f 77c4 7e3f
000000a0: 3dcd 7e3f a0ed 7f3f b8b0 803f a195 7d3f
000000b0: 63e1 813f d3cb 7d3f de35 7f3f 11d8 7d3f
000000c0: 10bf 7e3f 7426 803f cea9 7f3f 9583 803f
000000d0: 742f 7f3f 9964 813f 65ed 7f3f 0e8d 7e3f
000000e0: e9cf 803f c055 7e3f fb7f 813f e796 7f3f
000000f0: e251 7e3f 015e 7e3f 2908 7f3f 13f5 7f3f
1.0105596 0.9891356 0.9974302 1.0013324 0.98691493 1.0161834 0.99211794 1.0027928
0.9989472 0.9990391 0.9908751 0.9913117 1.0018023 1.0037225 1.0020107 1.0013663
0.99634516 0.9981201 1.0043508 1.004972 0.9913783 0.99486595 1.0041087 1.0014073
0.99634606 1.0017053 0.9913785 0.9965441 1.0070426 0.99495244 0.99419004 1.0057505
1.0003041 1.0037006 0.9948491 1.0004663 1.0026668 0.9933713 0.9934734 0.9951853
0.9953192 0.9997196 1.005393 0.9905644 1.0146908 0.99139136 0.9969157 0.99157816
0.9951029 1.0011735 0.99868476 1.0040156 0.9968178 1.0108825 0.9997161 0.9943398
1.0063449 0.99349594 1.0117182 0.99839634 0.99343693 0.9936219 0.99621826 0.9998333

module.model.9.bias f4 [64]
00000000: 1aaf 1a3d 4c20 953c 6510 b53c 7c93 e23c
00000010: 6628 b63b 4de4 023d e69a 933c 9284 e73c
00000020: 583d 3d3d 5d60 0a3b d523 103c 29e9 a23c
00000030: 4bfa 2b3d 6c3f 233d 71e1 513d 5f0e ea3b
00000040: 7f52 d63c 88d2 bb3c 88bb 8f3a 7a8d 233d
00000050: fe64 fa3b 0240 e63b 749a da3c f73e ff3c
00000060: 8d2f a33c 0388 a13c 32fc 11bc 7aca 313c
00000070: b518 1a3d 9773 953c 7fc4 0c3b 979b 123d
00000080: aeaf d83c 7145 353d 4f36 7fbb 4d36 bebb
00000090: 51e2 c23c f634 353a 28cc 933c a540 453b
000000a0: a7d9 573c e36e 4d3c fa09 013d 037b 673c
000000b0: db0a 063d db05 133c 6c41 e93b 03eb 9d3b
000000c0: 8862 b73b a47e b23c 96ed e43c 8957 8c3b
000000d0: 2990 493c d12e 253d fbe0 0f3d d711 5e3c
000000e0: f2de 2e3b 7a28 ed38 53ce 943c 9123 b23c
000000f0: a768 b03c 4c67 a83c 8042 fb3b 6c46 123d
0.037764646 0.018203877 0.022102544 0.027658217 0.005559015 0.031956006 0.018018197 0.028261457
0.04620108 0.0021114566 0.0087976055 0.01988657 0.041986745 0.039855406 0.05124039 0.0071428264
0.026162384 0.022927538 0.0010965923 0.039929844 0.0076414337 0.0070266733 0.026684977 0.031157954
0.019920135 0.019718176 -0.008910226 0.010851497 0.03762122 0.018243594 0.0021479425 0.035792913
0.026450958 0.044255678 -0.0038942283 -0.005804813 0.023789557 0.0006912494 0.018041685 0.0030098346
0.013174451 0.0125386445 0.031503655 0.014128449 0.032725196 0.008973564 0.0071183946 0.0048192753
0.0055964626 0.021788903 0.027945321 0.004282896 0.012302437 0.04032785 0.035126667 0.013554058
0.0026683179 0.0001130858 0.01816479 0.021745475 0.021534277 0.020557068 0.0076678395 0.03571169

module.model.9.running_mean f4 [64]
00000000: fb73 073f 5086 8fbe 616a 893e f7d4 3e3e
00000010: 76ed 53be 2562 d03e 3207 e8be 4c00 833d
00000020: 54ed f4bd da8c d53d 73ee ecbe e6c5 04be
00000030: 9e5e 0e3f 3e6a c33d bb6b 4fbe f339 ca3e
00000040: 0cbb 18bf de2e 2a3e 5cc2 0b3f 1b38 253e
00000050: 4082 9cbd 0af6 56be ff04 f33e 06bb c83d
00000060: a315 9dbe 1d85 f1bd d484 5fbf 86ec 73be
00000070: b0cb b03e f906 133f c913 043d 2ef3 aa3e
00000080: bba8 343e 9075 db3d 4b0e 233d 83dd 293f
00000090: 6ac7 813d ec3c 2abe fe27 dfbe f118 0cbf
000000a0: 3fdc 86be 31a1 9bbe aec2 573e 45af 2ebe
000000b0: e563 f03e 0687 d6bd 9415 ccbc 2894 64be
000000c0: f936 14bd de5f 993e 08c3 3e3d d006 a1bd
000000d0: 9708 29be 6142 e53e a3df e83d a5f7 36be
000000e0: ca32 a13e 0b69 30be 7389 3c3d 0d40 9f3e
000000f0: d98d c8be 88c5 53be 3ec1 21be 08ce c53d
0.5291135 -0.2803216 0.26838973 0.18635927 -0.20696053 0.40699878 -0.4531799 0.06396541
-0.11959329 0.10427256 -0.46275672 -0.12966117 0.55613124 0.095417485 -0.2025594 0.39497337
-0.5966041 0.16619441 0.54593444 0.16134684 -0.07642031 -0.20992294 0.4746475 0.09801297
-0.3068057 -0.117929675 -0.87312055 -0.23820695 0.345304 0.57432514 0.03224543 0.33388656
0.1764249 0.10715783 0.039808553 0.66353625 0.06336863 -0.16624802 -0.435852 -0.5472556
-0.2633991 -0.30396417 0.21070358 -0.17059048 0.46951213 -0.104749724 -0.024912633 -0.22322142
-0.03618524 0.29955953 0.046572715 -0.078626275 -0.16507183 0.44777206 0.1137078 -0.17867906
0.3148406 -0.1722757 0.04602952 0.31103554 -0.3917072 -0.20680821 -0.15796372 0.09658438

module.model.9.running_var f4 [64]
00000000: 3188 af3f 368c 8b3f 01ca 803f 70b7 933f
00000010: c40d 823f 0ba2 c43f 8f61 9c3f 20c2 e03e
00000020: 0977 dc3e 2560 8d3f f099 953f de78 2c3f
00000030: a5f2 913f 18f1 1d3f 3eb6 293f 5540 a03f
00000040: 78de ac3f b4de 623f f90a 0f40 b555 ac3f
00000050: 1fca 9f3f 35a3 943f ee42 803f 9439 163f
00000060: 92a4 933f e94c 533f e63a e63f e71b a93f
00000070: 45b1 253f 202a 5c3f c82c 493f 54bb 683f
00000080: 8933 3d3f ad68 223f 0868 903f 7932 ce3f
00000090: f6a0 7e3f 88b3 943f 00c2 ab3f 9d60 c33f
000000a0: 2b9f 3b3f eabd 9e3f b210 543f 4e28 133f
000000b0: 6811 753f fbc4 9f3f 493d 853f 4478 233f
000000c0: e06d 673f 1c1f 4a3f 8568 433f b49e 803f
000000d0: d8b0 913f c6cd b43f ac2d 203f 538b 943f
000000e0: b7f5 b13f dfe4 af3f c3e0 3d3f 9d92 5a3f
000000f0: 9a07 7b3f 33ac 6d3f 5e88 243f 2688 343f
1.3713437 1.0902164 1.0061647 1.1540356 1.0160451 1.5361952 1.2217273 0.43898106
0.43059567 1.1044966 1.1687603 0.6737193 1.1402174 0.61696005 0.66293705 1.2519633
1.3505392 0.8862107 2.2350447 1.3463656 1.2483557 1.1612307 1.0020425 0.5868161
1.1534598 0.8253923 1.7986724 1.321164 0.64723617 0.8600178 0.78583956 0.9091084
0.7390676 0.6344097 1.1281748 1.6109153 0.99464357 1.1617289 1.3418579 1.5263859
0.73289746 1.2401707 0.82837975 0.57483375 0.95729685 1.2481989 1.0409328 0.63855386
0.9040203 0.7895372 0.7633136 1.0048432 1.1382093 1.4125297 0.6256969 1.1605018
1.3903111 1.3741721 0.74171084 0.85379964 0.98058474 0.9284088 0.6427058 0.70520246
