SIDDbest-model2000iter-5layers-withBN-20innerIter.pth (torch, 467866 bytes, 22 tensors)

module.model.0.weight f4 [64, 3, 3, 3]
-0.059016194 -0.092535146 0.012580573 -0.06949818 -0.09707775 0.13319066 -0.0369145 0.0949741
-0.019403175 0.05711061 0.1087447 -0.16875686 -0.10460828 0.0009906368 0.038085103 -0.17798878
-0.0912648 0.12178502 -0.08737847 0.05943247 0.18046023 0.108333014 0.03444396 -0.08749489
-0.070792735 0.06410817 -0.1640115 0.07009303 0.1539687 -0.033908464 -0.0032662586 0.10954728
-0.053009495 -0.17849097 0.08077387 -0.11380332 -0.06624347 -0.12374279 -0.14681748 0.045200408
0.13238549 0.00050646963 -0.042330947 -0.086893395 0.018106405 0.017830756 -0.11507844 0.025435764
-0.0387268 -0.0042464053 0.058873735 -0.1497374 -0.10316709 0.21076906 0.18588403 -0.010258012
0.18362986 -0.109897144 -0.1801117 0.046890035 0.15398382 0.102535136 -0.034123287 -0.10421465
0.14951676 0.13646087 -0.035291772 0.03864853 0.109942034 0.09622904 0.108080775 0.14415944
0.0268214 -0.16832878 -0.13125615 0.09439942 -0.06345905 0.009900647 0.1980053 -0.0887866
0.14080381 0.046754852 -0.096049696 -0.05637437 0.17980208 0.10117636 -0.1501911 0.17751186
-0.062754706 -0.14496472 -0.02199637 -0.026312258 -0.1165362 -0.018705195 -0.15106915 0.18268827
0.060035795 -0.13046508 0.05575176 0.0276823 0.12281059 -0.15332057 0.1622422 0.15761141
0.020854507 0.1512182 -0.1524955 0.09359532 0.092860274 -0.015812624 -0.14923725 0.17646727
-0.037181456 0.15069568 0.0768609 -0.03707978 -0.047081534 0.1314698 0.042890597 0.10513215
-0.0035171711 0.0041068764 0.16761912 -0.038092766 -0.115700796 -0.14569396 0.068464234 0.13353172
0.08630599 -0.040157903 0.17566861 0.12196514 -0.00941648 0.13593 -0.04872123 0.13709211
0.16164303 0.004840655 -0.17255777 -0.19016647 0.05318794 0.1319768 -0.12621452 0.11685866
0.048964765 -0.08828257 0.17052458 -0.16466169 -0.11520714 -0.17146865 -0.17799766 -0.14439982
-0.12785724 -0.102801725 -0.07895273 0.14033385 0.074355185 0.015624547 0.0037210577 0.19357981
-0.040336967 0.15562527 0.1387729 0.1627617 0.03372994 0.048730794 0.17367692 -0.14759925
0.04767757 -0.07597851 -0.02836281 -0.17337777 0.015351316 -0.10270982 -0.09349214 -0.06227
0.010361127 -0.057725675 -0.09700324 0.09636131 -0.11162757 0.0632506 0.12332039 -0.14044242
-0.07325938 -0.048796028 -0.17688522 0.02562148 0.07367797 0.12576105 0.06947026 0.048433144
0.1850794 0.05706275 0.16905159 0.14807563 -0.093817174 0.1065237 -0.10839397 -0.14439853
0.11484677 0.07517961 0.19320142 0.07020355 -0.09608271 -0.08704767 0.0022739212 -0.1671191
-0.1668713 0.12419329 -0.033003632 0.18213198 0.1882823 -0.15869786 -0.033564523 0.124267295
-0.027648017 0.18541309 -0.15733483 0.07628074 0.16767599 0.14865948 -0.16391332 -0.019259948
-0.14974748 0.045074992 0.0768456 -0.020280454 -0.11211558 -0.03405838 0.0072278404 0.19702673
0.016982405 0.024168396 -0.10393473 -0.017843742 0.07815497 -0.112364426 0.073675275 0.11245296
-0.061852667 -0.13622788 0.007679316 -0.004988005 0.07905818 0.1184654 0.090771884 0.041448154
0.008901343 -0.046753325 -0.017440291 -0.08260289 0.119575076 0.18327743 -0.11374062 0.057201028
00000000: f7ba 71bd 1183 bdbd bf1e 4e3c 1055 8ebd
00000010: b3d0 c6bd 2263 083e a933 17bd c881 c23d
00000020: 68f3 9ebc d1ec 693d 8bb5 de3d 99ce 2cbe
00000030: de3c d6bd 41d8 813a 20ff 1b3d b142 36be
00000040: 0ae9 babd 6d6a f93d 7cf3 b2bd 766f 733d
00000050: 91ca 383e b3dd dd3d 1c15 0d3d 8530 b3bd
00000060: c8fb 90bd 254b 833d a1f2 27be ef8c 8f3d
00000070: f9a9 1d3e 9ae3 0abd ba0e 56bb 535a e03d
00000080: 7c20 59bd 56c6 36be c56c a53d b711 e9bd
00000090: a8aa 87bd dc6c fdbd 5257 16be 1024 393d
000000a0: 1090 073e 9ac4 043a 3763 2dbd 2af5 b1bd
000000b0: e253 943c ce11 923c 3fae ebbd aa5e d03c
000000c0: fe9f 1ebd 6e25 8bbb 9625 713d c354 19be
000000d0: 4449 d3bd d8d3 573e 6258 3e3e 3911 28bc
000000e0: 7709 3c3e c111 e1bd 346f 38be c40f 403d
000000f0: efad 1d3e f1fd d13d dcc4 0bbd 7e6e d5bd
00000100: ec1a 193e 66bc 0b3e 1b8e 10bd ec4d 1e3d
00000110: 4a29 e13d bb13 c53d 7459 dd3d 889e 133e
00000120: 8db8 db3c 615e 2cbe 0368 06be 7c54 c13d
00000130: d2f6 81bd 5336 223c e7c1 4a3e c0d5 b5bd
00000140: e02e 103e 0482 3f3d b4b5 c4bd d0e8 66bd
00000150: 091e 383e 8d35 cf3d b2cb 19be abc5 353e
00000160: 8a85 80bd a271 14be bb31 b4bc ce8c d7bc
00000170: 88aa eebd a33b 99bc dfb1 1abe a212 3b3e
00000180: 18e8 753d a398 05be f55b 643d fec5 e23c
00000190: 1e84 fb3d 1100 1dbe d222 263e e364 213e
000001a0: 12d7 aa3c f2d8 1a3e c827 1cbe e7ae bf3d
000001b0: 872d be3d 7a89 81bc a6d1 18be d6b3 343e
000001c0: 954b 18bd f84f 1a3e 3f69 9d3d f8e0 17bd
000001d0: 91d8 40bd 05a0 063e 0dae 2f3d 864f d73d
000001e0: 5780 66bb fa92 863b 59a4 2b3e 2907 1cbd
000001f0: 8af4 ecbd cc30 15be fa36 8c3d 8abc 083e
00000200: 32c1 b03d 9d7c 24bd 79e2 333e dcc8 f93d
00000210: 9447 1abc 3c31 0b3e ea8f 47bd e061 0c3e
00000220: c085 253e 5b9e 9e3b fcb2 30be 00bb 42be
00000230: 99db 593d ed24 073e 613e 01be 9853 ef3d
00000240: 478f 483d 7ecd b4bd ff9d 2e3e 139d 28be
00000250: b9f1 ebbd 7a95 2fbe 0545 36be 8cdd 13be
00000260: 02ed 02be b689 d2bd f8b1 a1bd adb3 0f3e
00000270: 8847 983d 1afe 7f3c fddc 733b c939 463e
00000280: 6038 25bd 3b5c 1f3e 7c1a 0e3e 01ab 263e
00000290: 6828 0a3d f199 473d 5dd8 313e 4224 17be
000002a0: 8e49 433d 9f9a 9bbd 2059 e8bc f189 31be
000002b0: 1684 7b3c 8759 d2bd cf78 bfbd d40e 7fbd
000002c0: b7c1 293c c271 6cbd a2a9 c6bd 1459 c53d
000002d0: ff9c e4bd 8889 813d 678f fc3d 23d0 0fbe
000002e0: 0409 96bd 58de 47bd 6621 35be 23e4 d13c
000002f0: 7ae4 963d 81c7 003e 6c46 8e3d d561 463d
00000300: 7485 3d3e a1ba 693d dc1b 2d3e 23a1 173e
00000310: 3823 c0bd 1929 da3d a8fd ddbd 35dd 13be
00000320: c934 eb3d c4f7 993d 98d6 453e e1c6 8f3d
00000330: 03c7 c4bd 0c46 b2bd 1106 153b 4521 2bbe
00000340: 4fe0 2abe 0d59 fe3d d12e 07bd ce80 3a3e
00000350: 13cd 403e b181 22be f47a 09bd da7f fe3d
00000360: 187e e2bc eedc 3d3e 621c 21be 1439 9c3d
00000370: 41b3 2b3e 313a 183e e5d8 27be 0ac7 9dbc
00000380: 6757 19be 8ea0 383d 3a61 9d3d 3223 a6bc
00000390: da9c e5bd cd80 0bbd 85d7 ec3b 60c1 493e
000003a0: af1e 8b3c cdfc c53c bbdb d4bd 0a2d 92bc
000003b0: b70f a03d 521f e6bd 10e3 963d bd4d e63d
000003c0: 3959 7dbd 527f 0bbe c6a2 fb3b 6b72 a3bb
000003d0: 41e9 a13d fd9d f23d 9ce6 b93d 8ac5 293d
000003e0: f0d6 113c 6a80 3fbd f1de 8ebc b42b a9bd
000003f0: c7e3 f43d 14ad 3b3e d8f0 e8bd a04b 6a3d

module.model.0.bias f4 [64]
0.14777309 0.03527516 0.07308181 0.11744748 -0.015754048 -0.09616483 0.026501203 -0.14821735
-0.120946795 -0.05755911 -0.046608735 -0.13050851 0.047984663 -0.02562452 0.08954199 0.0702671
0.19902201 0.08013945 0.03404214 -0.12461883 -0.1806582 -0.15463142 -0.099551596 0.13097906
-0.115610905 0.090892635 -0.003125776 0.10375833 0.02403314 0.17096029 0.07325046 -0.17087746
0.09377022 0.032827094 0.15666357 -0.13918564 -0.051978868 -0.16065496 -0.12649956 0.19501957
-0.0040414734 0.12839592 0.052463476 0.094359756 0.039434623 0.051121555 -0.04046067 0.0013114905
-0.029094817 0.07606956 -0.039206926 0.10086482 -0.13789502 0.03820305 -0.024170348 0.027977634
-0.03759477 0.078079335 -0.096471824 -0.0014689877 0.06464798 0.18098927 0.16098407 -0.07567411
00000000: d451 173e b07c 103d eaab 953d 4e88 f03d
00000010: a20e 81bc 11f2 c4bd 0d19 d93c 4ac6 17be
00000020: f4b2 f7bd 1ac3 6bbd cde8 3ebd 06a4 05be
00000030: 918b 443d 83ea d1bc ca61 b73d 33e8 8f3d
00000040: 6dcc 4b3e 2720 a43d c56f 0b3d 2838 ffbd
00000050: 77fe 38be b357 1ebe b5e1 cbbd 601f 063e
00000060: 69c5 ecbd eb25 ba3d d2d9 4cbb 3f7f d43d
00000070: 26e1 c43c 3710 2f3e 5604 963d 80fa 2ebe
00000080: 9a0a c03d b475 063d 6a6c 203e ae86 0ebe
00000090: cbe7 54bd bc82 24be 1a89 01be 36b3 473e
000000a0: 566e 84bb 387a 033e f1e3 563d b03f c13d
000000b0: 3386 213d d664 513d 16ba 25bd 52e6 ab3a
000000c0: 4158 eebc 5cca 9b3d 7197 20bd 3792 ce3d
000000d0: 5a34 0dbe cd7a 1c3d e500 c6bc 5a31 e53c
000000e0: f9fc 19bd 0fe8 9f3d 0593 c5bd 0c8b c0ba
000000f0: 2966 843d 4055 393e 02d9 243e 07fb 9abd

module.model.2.weight f4 [64, 64, 3, 3]
-0.033524156 0.03068958 0.01778969 -0.0035510068 0.033471726 -0.02272897 0.04740528 -0.017192308
-0.018961025 -0.0063238153 -0.05075063 -0.030084422 -0.0797783 -0.06433405 -0.026325915 0.023185058
-0.02386432 -0.070421934 0.001654268 0.03830292 0.035173092 0.005723855 0.0035040893 -0.0035494387
-0.03483819 -0.009953323 -0.004081637 -0.0013971534 0.005489272 0.025273252 -0.0067593325 0.015994113
-0.0036612086 0.030494962 0.035972025 0.02683581 0.022326112 -0.035731327 0.013323138 -0.026102716
-0.022422953 0.020675082 -0.043619417 0.029051838 0.033964984 0.04107652 -0.0014389432 -0.0032717588
-0.0077017336 0.01485177 -0.0059695514 0.0070962356 0.006271906 -0.005732978 0.0044491454 0.0062401877
0.005009998 0.008835079 0.037722666 0.02075387 0.020628218 0.00937804 -0.010602815 -0.01019889
-0.037701204 -0.03430748 0.0075553674 -0.017861558 -0.031488746 -0.028012106 0.02176671 -0.003702468
-0.01119222 0.07684162 -0.006277481 0.007127192 0.019522851 -0.036957316 0.01705007 0.02629277
0.031760894 -0.048866 -0.040597863 0.022015713 -0.031061199 0.019494088 -0.04750956 -0.03390292
0.0044496795 0.025920907 -0.006345016 -0.03406102 -0.02907007 0.02964367 -0.0034520624 0.035202052
0.02482726 0.040523306 -0.008278397 -0.041078616 0.005755923 -0.0020324176 0.021795798 -0.01628288
-0.005554622 -0.025520677 0.014983182 0.0041760737 -0.05821781 -0.04081488 -0.015968991 -0.025900759
-0.0676518 -0.046305355 0.016778259 -0.04055888 0.026225122 -0.034611907 -0.017511552 0.004189368
-0.041122396 -0.022403786 -0.019330109 -0.0088038 -0.0075480747 -0.07416288 0.02395293 -0.034850482
0.0012647344 -0.010512102 -0.013396238 -0.03416042 0.026412712 -0.02237349 -0.041190293 -0.023401165
-0.046979945 0.039758563 -0.037300706 0.018421564 -0.034119837 -0.017565846 0.01929676 -0.0069043348
0.03981764 0.012077714 -0.03732479 -0.0049793953 -0.015773712 0.029045621 -0.029610053 0.018288823
0.020618528 -0.032649033 -0.028284607 -0.019606695 -0.008713479 -0.0020943526 -0.043733966 -0.052128572
0.019158026 -0.026300907 -0.031271063 -0.014578486 -0.0072514378 -0.034787163 -0.03572713 0.021097397
-0.045930173 0.021000378 0.007587703 -0.020175332 -0.03147384 0.037305493 -0.025100034 -0.0067263767
-0.009171397 0.014781365 -0.033190284 0.0020233698 0.0044103996 -0.0045839655 -0.007234499 -0.0062091914
-0.00084606715 0.012777932 -0.00032260045 0.0051230406 -0.019152172 0.04034647 0.024136003 -0.03681051
0.014460999 -0.011377439 0.009479684 0.009352013 0.029467082 -0.028192611 -0.05107229 0.017938219
-0.021157961 0.009978481 0.03187846 0.040298 -0.010000044 -0.00033434798 -0.008540874 0.009620589
-0.010235138 -0.018777044 -0.0023137478 0.015376866 -0.034008358 -0.00851859 0.018150361 -0.027545402
0.011210152 0.01777458 0.031675152 -0.016970742 -0.031186702 -0.005714695 0.0061176717 -0.017571907
-0.04064695 0.028741866 -0.03521437 0.030902825 -0.03027019 0.0020614322 0.027995039 0.014151951
-0.009956153 0.03037918 -0.018985732 0.017536124 0.012815572 -0.03289498 -0.015093707 0.028106876
0.0070749084 0.02759824 0.004288884 0.0128439 0.009158849 0.035717364 -0.036513828 -0.016536616
0.041766845 -0.027681366 -0.018449612 0.014897369 -0.042534836 -0.01857906 -0.0479009 -0.020236513
00000000: a050 09bd b768 fb3c afbb 913c 02b8 68bb
00000010: a619 093d 1b32 babc 0a2c 423d e2d6 8cbc
00000020: 2754 9bbc 0238 cfbb e5df 4fbd 9b73 f6bc
00000030: ce62 a3bd 92c1 83bd 72a9 d7bc 97ee bd3c
00000040: 1b7f c3bc 6039 90bd 06d4 d83a 86e3 1c3d
00000050: a911 103d 2d8f bb3b dda4 653b b39d 68bb
00000060: 7db2 0ebd 4313 23bc 41bf 85bb b020 b7ba
00000070: 5adf b33b da09 cf3c 647d ddbb 1606 833c
00000080: e3f0 6fbb 92d0 f93c 6757 133d c6d6 db3c
00000090: 40e5 b63c 035b 12bd 4a49 5a3c 5dd5 d5bc
000000a0: 57b0 b7bc ca5e a93c 46aa 32bd 1ffe ed3c
000000b0: de1e 0b3d da3f 283d ec9a bcba 016b 56bb
000000c0: d35e fcbb d754 733c 3a9c c3bb 8a87 e83b
000000d0: 9084 cd3b b5db bbbb 23ca 913b 7d7a cc3b
000000e0: e92a a43b 02c1 103c 1583 1a3d 0504 aa3c
000000f0: 82fc a83c 5aa6 193c 6eb7 2dbc 3f19 27bc
00000100: 946c 1abd 0086 0cbd 0493 f73b 6752 92bc
00000110: 58fa 00bd a579 e5bc 1950 b23c 1ba5 72bb
00000120: 935f 37bc 245f 9d3d 54b3 cdbb 388b e93b
00000130: 63ee 9f3c 8e60 17bd 97ac 8b3c ef63 d73c
00000140: b617 023d b727 48bd f249 26bd 4c5a b43c
00000150: 0e74 febc 11b2 9f3c 6299 42bd cadd 0abd
00000160: 9ece 913b 1558 d43c dae9 cfbb 9183 0bbd
00000170: 5b24 eebc 48d7 f23c ff3b 62bb 0730 103d
00000180: 8a62 cb3c c4fb 253d 1da2 07bc 0d42 28bd
00000190: 2f9c bc3b 4f32 05bb 1a8d b23c ad63 85bc
000001a0: 8c03 b6bb bd10 d1bc 057c 753c 72d7 883b
000001b0: cc75 6ebd 812d 27bd 67d1 82bc d42d d4bc
000001c0: 078d 8abd afaa 3dbd 8f72 893c 1121 26bd
000001d0: 11d6 d63c 37c5 0dbd 6374 8fbc f746 893b
000001e0: f56f 28bd 2588 b7bc 2d5a 9ebc d03d 10bc
000001f0: d755 f7bb b5e2 97bd ef38 c43c 61bf 0ebd
00000200: 72c5 a53a f43a 2cbc e57b 5bbc cceb 0bbd
00000210: 795f d83c 9c48 b7bc 27b7 28bd cdb3 bfbc
00000220: 0b6e 40bd e0d9 223d a0c8 18bd d2e8 963c
00000230: 3ec1 0bbd 40e6 8fbc 3d14 9e3c c23d e2bb
00000240: d217 233d 9be1 453c e1e1 18bd 322a a3bb
00000250: df37 81bc 15f1 ed3c c890 f2bc 71d2 953c
00000260: 30e8 a83c feba 05bd 1fb5 e7bc 389e a0bc
00000270: fbc2 0ebc 6841 09bb 6322 33bd c584 55bd
00000280: 4bf1 9c3c 0075 d7bc 1616 00bd 9ada 6ebc
00000290: 789d edbb fc7c 0ebd 9c56 12bd 73d4 ac3c
000002a0: 4721 3cbd fc08 ac3c 44a2 f83b bd46 a5bc
000002b0: b7ea 00bd a5cd 183d 969e cdbc f068 dcbb
000002c0: a143 16bc 8a2d 723c 89f2 07bd 839a 043b
000002d0: 1d85 903b 1735 96bb 600f edbb 7976 cbbb
000002e0: 9bca 5dba 885a 513c b322 a9b9 2edf a73b
000002f0: 04e5 9cbc 5742 253d deb8 c53c 9ec6 16bd
00000300: d3ed 6c3c 7068 3abc ad50 1b3c 2f39 193c
00000310: f364 f13c 31f4 e6bc 2d31 51bd 2cf3 923c
00000320: 7653 adbc c87c 233c fd92 023d 840f 253d
00000330: 39d7 23bc 6d4b afb9 06ef 0bbc ad9f 1d3c
00000340: 48b1 27bc 51d2 99bc 3fa2 17bb 40ef 7b3c
00000350: 594c 0bbd 8e91 0bbc 11b0 943c e5a6 e1bc
00000360: c9aa 373c ff9b 913c cebd 013d 3a06 8bbc
00000370: 417b ffbc 5642 bbbb c076 c83b f6f2 8fbc
00000380: 6b7d 26bd 1074 eb3c f13c 10bd ec27 fd3c
00000390: 31f9 f7bc 1819 073b da55 e53c 96dd 673c
000003a0: 221f 23bc c2dd f83c f787 9bbc eba7 8f3c
000003b0: 68f8 513c e3bc 06bd 984b 77bc 6440 e63c
000003c0: a2d4 e73b b415 e23c c489 8c3b 396f 523c
000003d0: ff0e 163c 5f4c 123d 868f 15bd cc77 87bc
000003e0: b613 2b3d 08c4 e2bc a423 97bc 1814 743c
000003f0: 0239 2ebd 1d33 98bc bc33 44bd 0bc7 a5bc

module.model.2.bias f4 [64]
0.024890393 0.01596998 -0.037573967 0.019165136 0.033517133 0.0012249919 0.016082799 0.030813532
-0.03786267 -0.031605646 -0.0017950669 0.00697046 0.026315434 0.036686424 0.011193141 0.024697889
-0.038188 -0.009410649 0.026836433 0.00429056 0.009713295 0.022563176 0.010353915 -0.02923201
-0.0022764362 -0.017462416 0.024733923 0.021931564 -0.035125908 -0.03342456 -0.025680372 -0.033994615
0.017721513 -0.008558859 0.010028033 -0.023654645 -0.020789903 0.033835486 -0.041261654 0.016556723
0.010102104 0.01730293 -0.027443433 -0.03869621 0.0134670995 0.0022438252 -0.018502604 -0.0128512485
0.03809888 0.031652644 0.020391323 0.009815896 0.029953415 0.018987872 -0.0074870195 0.019021805
-0.0020484426 0.02862313 -0.0027911565 -0.031375896 -0.006823092 0.021732623 -0.040857486 -0.007776947
00000000: f0e6 cb3c 7ad3 823c 29e7 19bd 3400 9d3c
00000010: 4349 093d e88f a03a 13c0 833c a96c fc3c
00000020: e315 1bbd ec74 01bd 7348 ebba 7568 e43b
00000030: 7793 d73c 8144 163d 7063 373c 3a53 ca3c
00000040: 056b 1cbd 1f2f 1abc 14d8 db3c d397 8c3b
00000050: 8324 1f3c 69d6 b83c 78a3 293c f877 efbc
00000060: 4330 15bb 570d 8fbc cc9e ca3c d3a9 b33c
00000070: 2fe0 0fbd 31e8 08bd a55f d2bc f03d 0bbd
00000080: b52c 913c 753a 0cbc 9e4c 243c 63c7 c1bc
00000090: 964f aabc 1497 0a3d fb01 29bd f7a1 873c
000000a0: 4c83 253c e0be 8d3c 0dd1 e0bc eb7f 1ebd
000000b0: 1ca5 5c3c 240d 133b c692 97bc 0b8e 52bc
000000c0: 920d 1c3d 34a6 013d b40b a73c dad2 203c
000000d0: dd60 f53c 748c 9b3c ac55 f5bb 9ed3 9b3c
000000e0: 2a3f 06bb 0e7b ea3c d6eb 36bb 0384 00bd
000000f0: 3e94 dfbb 9d08 b23c 2e5a 27bd c3d5 febb

module.model.3.weight f4 [64]
0.99902046 1.0000845 1.0079167 1.0041518 0.99569374 1.0033026 0.9945435 0.9997522
0.9965834 1.0033113 1.0046614 0.9927657 0.9871809 0.998553 0.99913895 0.9979749
0.995954 1.0048702 1.0022913 0.9861117 1.0104648 0.992909 1.0021306 1.0083618
0.9992728 0.9986291 1.0002713 1.0008254 0.9938995 1.0015903 1.0000454 1.0016004
1.0022995 0.99805546 0.99708825 0.9970521 0.99474126 1.0088606 1.0012158 0.99652296
1.0016896 1.0038315 1.0056329 1.0015435 0.9974132 1.0061959 1.0003511 1.0049015
0.99436796 1.0012197 1.0061193 0.99949014 0.99807453 1.0021058 0.9970648 1.0072194
1.0026928 1.0029815 0.99257433 0.9961774 1.0028607 1.0033607 0.9960636 0.9999567
00000000: cebf 7f3f c502 803f 6a03 813f 0c88 803f
00000010: c9e5 7e3f 386c 803f 679a 7e3f c3ef 7f3f
00000020: 1720 7f3f 816c 803f bf98 803f e525 7e3f
00000030: e3b7 7c3f 2ba1 7f3f 92c7 7f3f 487b 7f3f
00000040: d7f6 7e3f 969f 803f 154b 803f d171 7c3f
00000050: e956 813f 492f 7e3f d145 803f 0012 813f
00000060: 58d0 7f3f 28a6 7f3f e408 803f 0c1b 803f
00000070: 3370 7e3f 1c34 803f 7d01 803f 7134 803f
00000080: 5a4b 803f 9080 7f3f 2d41 7f3f ce3e 7f3f
00000090: 5da7 7e3f 5822 813f d727 803f 211c 7f3f
000000a0: 5d37 803f 8d7d 803f 94b8 803f 9432 803f
000000b0: 7956 7f3f 07cb 803f 810b 803f 9da0 803f
000000c0: e68e 7e3f f827 803f 84c8 803f 96de 7f3f
000000d0: d081 7f3f 0145 803f a43f 7f3f 91ec 803f
000000e0: 3d58 803f b361 803f 5a19 7e3f 7b05 7f3f
000000f0: bd5d 803f 206e 803f 06fe 7e3f 2afd 7f3f

module.model.3.bias f4 [64]
0.017885266 0.008095282 0.01169638 0.018843712 -0.0006070783 0.015411227 0.011391349 0.020663105
0.0070292526 0.0182506 0.010896833 0.0017397893 0.001883893 0.007748618 0.015783248 0.00016086591
0.0075350916 0.009118301 -0.004498882 0.008147412 0.022550892 0.016391682 0.009752703 0.018879518
0.011334125 0.011682809 0.0060836338 0.005935777 0.0062968414 0.008529209 0.021345155 0.009506899
0.016645616 0.0103018405 0.008954261 0.0062277117 6.873931e-05 0.008862002 0.0070046075 0.0031870524
0.013717322 0.0074899057 0.016009174 0.00615869 0.0024161786 0.01791044 -0.00012521191 0.016483339
0.009545749 0.016318869 0.0065930337 0.0064580664 -0.0022383423 0.014110439 0.008842512 0.010391254
0.014244031 0.007497216 0.014053635 0.0040280586 0.003647305 0.0076512326 0.0038309288 0.0018801613
00000000: 1f84 923c 13a2 043c 2ca2 3f3c 215e 9a3c
00000010: 5624 1fba 5f7f 7c3c c8a2 3a3c ac45 a93c
00000020: a555 e63b 4882 953c a188 323c a409 e43a
00000030: f6ec f63a 1ee8 fd3b df4b 813c 1dae 2839
00000040: eee8 f63b ed64 153c 5c6b 93bb b97c 053c
00000050: a6bc b83c d947 863c cdc9 1f3c 38a9 9a3c
00000060: c4b2 393c 4169 3f3c 3859 c73b e880 c23b
00000070: bc55 ce3b 18be 0b3c 09dc ae3c d3c2 1b3c
00000080: 635c 883c 0dc9 283c e5b4 123c d511 cc3b
00000090: 2328 9038 ee31 113c e886 e53b dedd 503b
000000a0: 9ebe 603c e26d f53b ac25 833c d6ce c93b
000000b0: c058 1e3b eab8 923c 514b 03b9 1108 873c
000000c0: c665 1c3c 26af 853c 600a d83b 309e d33b
000000d0: 27b1 12bb 792f 673c 2fe0 103c 1440 2a3c
000000e0: cc5f 693c 35ab f53b 3841 663c cefd 833b
000000f0: a007 6f3b 31b7 fa3b 5210 7b3b bf6f f63a

module.model.3.running_mean f4 [64]
-0.13422175 -0.26658034 -0.24959444 0.24006706 -0.21650195 0.1402149 -0.2835471 0.17738394
0.18073688 0.23122424 -0.25065026 -0.24871708 -0.13051814 0.2963127 0.22565472 0.38471505
0.28964937 -0.25987846 -0.17871378 0.13787688 -0.09407996 -0.25569856 -0.2602694 -0.3227109
0.1908044 -0.25919208 0.33170784 -0.20873596 -0.26831746 -0.32094666 0.23521096 0.28093815
-0.20218341 -0.13306767 0.3687662 -0.10175095 -0.23181741 -0.23612994 -0.25995165 0.28603977
0.1181985 0.20224495 -0.2613146 -0.19400698 -0.17364909 -0.25557607 0.27177745 -0.16836865
-0.20461504 -0.16351034 0.25278458 0.15936927 -0.18306279 0.20390531 -0.17700063 0.2349443
0.17622048 0.2717937 0.17405003 0.32847115 -0.26990476 -0.2368353 0.15723777 -0.24768344
00000000: 6d71 09be 387d 88be af95 7fbe 24d4 753e
00000010: b0b2 5dbe 7f94 0f3e 162d 91be 23a4 353e
00000020: 1713 393e 0cc6 6c3e 3b55 80be b1af 7ebe
00000030: 8ca6 05be 4cb6 973e 0812 673e 5ff9 c43e
00000040: ec4c 943e ca0e 85be bf00 37be 992f 0d3e
00000050: feac c0bd ecea 82be 0842 85be 5d3a a5be
00000060: 3b62 433e d3b4 84be 9cd5 a93e e1be 55be
00000070: e860 89be 1f53 a4be 24db 703e 20d7 8f3e
00000080: 2b09 4fbe e442 08be ecce bc3e cd62 d0bd
00000090: 8b61 6dbe 0ccc 71be 6218 85be ce73 923e
000000a0: 0e12 f23d 4d19 4f3e 07cb 85be c4a9 46be
000000b0: 11d1 31be deda 82be 6a26 8b3e d568 2cbe
000000c0: 9b86 51be 416f 27be fb6c 813e b331 233e
000000d0: d074 3bbe 8ecc 503e a73f 35be 3d95 703e
000000e0: 2473 343e 8b28 8b3e 2c3a 323e 5f2d a83e
000000f0: f530 8abe f484 72be f002 213e baa0 7dbe

module.model.3.running_var f4 [64]
0.008675704 0.030490186 0.01847125 0.019159567 0.013029151 0.01112047 0.021808729 0.010101439
0.0155876735 0.020592295 0.020420367 0.019659808 0.0138407415 0.013468971 0.011638009 0.024921399
0.019066092 0.018106906 0.02312773 0.010922461 0.0060777524 0.015680967 0.021719513 0.024584088
0.007631166 0.0252093 0.02664283 0.028267063 0.025316289 0.015977893 0.020888938 0.025187265
0.017719777 0.006501984 0.03534482 0.0120979315 0.008986536 0.016972959 0.012626602 0.022820437
0.010673211 0.012037705 0.015900124 0.010490306 0.008890363 0.021936882 0.018887477 0.007039913
0.015560544 0.013817443 0.016546113 0.010393033 0.021952776 0.011245904 0.016436879 0.023030762
0.009636678 0.011836204 0.018626321 0.029379325 0.017769987 0.018114867 0.013144181 0.013759352
00000000: 8a24 0e3c 8ec6 f93c 0551 973c 86f4 9c3c
00000010: 3878 553c a232 363c 38a8 b23c 8280 253c
00000020: 7163 7f3c 2cb1 a83c 9d48 a73c 9b0d a13c
00000030: 47c4 623c f5ac 5c3c 59ad 3e3c f627 cc3c
00000040: 7e30 9c3c ef54 943c 5d76 bd3c 1ff4 323c
00000050: e227 c73b 5f75 803c 1fed b13c 9264 c93c
00000060: dc0e fa3b bc83 ce3c 1042 da3c 5490 e73c
00000070: 1b64 cf3c 12e4 823c 471f ab3c 8655 ce3c
00000080: 1129 913c 980e d53b bbc5 103d 6736 463c
00000090: 443c 133c e00a 8b3c cfdf 4e3c edf1 ba3c
000000a0: b1de 2e3c cb39 453c fa40 823c 88df 2b3c
000000b0: e3a8 113c fab4 b33c e9b9 9a3c 12af e63b
000000c0: a7f1 7e3c 8e62 623c b78b 873c 8a47 2a3c
000000d0: 4fd6 b33c bd40 383c a2a6 863c 02ab bc3c
000000e0: 28e3 1d3c a3ec 413c 3a96 983c e9ac f03c
000000f0: 5d92 913c a165 943c b15a 573c e86e 613c

module.model.5.weight f4 [64, 64, 3, 3]
0.039650504 0.02430161 -0.0101363845 0.015034208 -0.010224189 0.027859945 -0.01607356 -0.022551123
-0.017249756 -0.033679124 0.012404362 0.0042554685 -0.018910667 -0.03883892 -0.035956625 -0.021718312
-0.007037528 0.0013421465 0.03496145 -0.011574602 -0.040667385 -0.038490117 -0.031264596 0.030270616
0.016385615 0.019937316 -0.009433774 -0.037739415 -0.008514496 -0.0431163 -0.011746909 0.029717648
-0.0345296 -0.00800495 -0.03721068 -0.003105458 -0.01975456 0.032276068 0.011402719 0.018696954
0.024797404 0.011409215 0.020394145 0.026499543 0.02714523 0.015224498 0.01657036 -0.01723195
0.0074677775 0.024298161 -0.02823331 -0.013482131 0.0070515494 -0.041104887 -0.002655366 0.005153905
-0.02400772 0.032335836 -0.028111918 0.01395567 -0.010631483 -0.0069766627 -0.0034160004 -0.0026473724
-0.033609774 0.011852811 -0.020631764 -0.043769337 0.02496799 0.021806825 -0.0050251507 -0.024936784
-0.03245491 0.011121155 0.025800835 0.040302202 -0.036595672 -0.023665594 -0.030006558 0.027250173
-0.031066246 -0.01702971 0.021537075 0.016421791 0.0036830788 -0.017255303 0.030870738 -0.023245241
0.000151475 -0.013567299 -0.032126475 -0.00514856 0.00468529 -0.030817382 -0.011990182 -0.016204156
-0.04175399 0.018617075 0.0040594735 -0.023051595 -0.032208472 0.0031483115 -0.0039102505 -0.01487352
-0.0011727108 0.0244664 0.013040584 0.0021667364 0.0023415142 0.031551555 0.00045975324 0.020473137
-0.00027179555 -0.022484561 -0.017577294 -0.019454205 0.032234766 -0.027006965 0.027067078 -0.010514157
0.021534065 -0.03829847 0.015222241 -0.028244259 0.00043057857 0.030739894 0.019150842 -0.008123096
-0.022514319 -0.03480862 0.042369545 -0.012523054 0.0012399808 -0.027182987 -0.013864505 -0.009937471
-0.025991354 -0.013285261 0.009660793 -0.005235914 -0.016198749 -0.028596418 0.0062811174 0.005760721
-0.0077716834 -0.002747646 0.03432977 -0.004796267 0.0077562975 0.03618736 -0.027780361 0.04075956
0.024173418 0.017409192 -0.01869367 -0.006795546 0.027822059 0.026426842 0.03588551 -0.035059813
-0.00929498 0.029372068 0.0201245 0.028357968 0.010269934 0.021756515 0.016174495 0.023476686
-0.0014073591 0.04268897 0.02415727 0.03265369 0.027501509 0.0076165507 -0.011991652 0.017490478
-0.010287689 0.025869822 0.023490604 0.03533239 -0.02238432 -0.027509112 0.034654133 -0.023163179
0.025370255 0.02354951 0.02332565 0.025390526 -0.035777453 -0.00058595726 -0.033012338 0.018454636
0.03756805 -0.013913697 -0.020495996 0.000283209 0.016237201 -0.010361921 0.00057422044 0.009029273
0.025541173 0.009111297 0.03678295 0.0007940425 0.0039728456 0.010709543 0.00492355 0.021595381
-0.0015465037 -0.026730698 -0.008541385 0.038140807 0.0007536782 0.0039737984 -0.043560095 -0.016640242
-0.017814996 0.031029029 0.021001931 0.04237783 0.026284622 -0.025481703 -0.013302014 0.017120635
-0.04878416 -0.017391952 -0.014207907 -0.019815823 0.014718693 0.027521871 0.010795585 0.03314042
0.04007605 -0.022940481 -0.023820847 -0.045504868 -0.04268168 -0.021761771 -0.0008944339 -0.024716774
-0.013655929 -0.010271059 0.00046740918 -0.00823356 0.020938965 0.03051308 0.012422937 0.019705031
0.03307827 0.01648061 0.043539237 0.001139451 0.02700722 0.041632216 0.028650614 0.026820138
00000000: 9168 223d 2c14 c73c 1413 26bc 0a52 763c
00000010: 5b83 27bc 8a3a e43c b3ac 83bc 22bd b8bc
00000020: 5c4f 8dbc 1ff3 09bd aa3b 4b3c 7571 8b3b
00000030: 8bea 9abc 8f15 1fbd 4147 13bd 9aea b1bc
00000040: 109b e6bb f7ea af3a bd33 0f3d 66a3 3dbc
00000050: d892 26bd d0a7 1dbd 4e0f 00bd 15fa f73c
00000060: 203b 863c 9553 a33c 1e90 1abc a594 1abd
00000070: 6280 0bbc b89a 30bd 1b76 40bc 6d72 f33c
00000080: e96e 0dbd 3227 03bc 3a6a 18bd f184 4bbb
00000090: 51d4 a1bc e933 043d 78d2 3a3c 5b2a 993c
000000a0: ed23 cb3c b7ed 3a3c 9f11 a73c 9215 d93c
000000b0: ac5f de3c 2c70 793c 90be 873c 052a 8dbc
000000c0: 42b4 f43b f00c c73c 8b49 e7bc 28e4 5cbc
000000d0: af10 e73b 995d 28bd a605 2ebb 17e2 a83b
000000e0: d7ab c4bc 9572 043d f74a e6bc 53a6 643c
000000f0: ac2f 2ebc 7d9c e4bb fade 5fbb 8a7f 2dbb
00000100: 67aa 09bd 4b32 423c f203 a9bc 7a47 33bd
00000110: ac89 cc3c 3aa4 b23c 05aa a4bb 3a48 ccbc
00000120: 71ef 04bd 8135 363c 465c d33c ec13 253d
00000130: 58e5 15bd 59de c1bc 50d0 f5bc c13b df3c
00000140: a47e febc e481 8bbc 856e b03c fe86 863c
00000150: cf5f 713b fe5a 8dbc a1e4 fc3c ce6c bebc
00000160: 43d5 1e39 6049 5ebc 0d97 03bd 40b5 a8bb
00000170: 1087 993b bc74 fcbc 7872 44bc 94be 84bc
00000180: 3b06 2bbd d682 983c 5505 853b b3d6 bcbc
00000190: 08ed 03bd e753 4e3b 8f21 80bb 10b0 73bc
000001a0: a5b5 99ba c26d c83c 2ca8 553c ceff 0d3b
000001b0: 1774 193b 343c 013d 090b f139 48b7 a73c
000001c0: c87f 8eb9 8b31 b8bc 42fe 8fbc 6d5e 9fbc
000001d0: 9a08 043d b63d ddbc c7bb dd3c 9243 2cbc
000001e0: 3568 b03c dbde 1cbd b566 793c 8160 e7bc
000001f0: 47bf e139 3bd2 fb3c 3ae2 9c3c bc16 05bc
00000200: f36f b8bc 7c93 0ebd b08b 2d3d 7f2d 4dbc
00000210: da86 a23a dbae debc f327 63bc c6d0 22bc
00000220: d2eb d4bc 6caa 59bc 4d48 1e3c 0892 abbb
00000230: 3db3 84bc 0943 eabc d5d1 cd3b 6ec4 bc3b
00000240: 9ba9 febb da11 34bb 5f9d 0c3d 012a 9dbb
00000250: 8a28 fe3b 3239 143d a493 e3bc 7ff3 263d
00000260: 5507 c63c b99d 8e3c 7823 99bc 2cad debb
00000270: 16eb e33c 1b7d d83c affc 123d e19a 0fbd
00000280: f949 18bc b19d f03c 23dc a43c f84e e83c
00000290: 3a43 283c b83a b23c 6080 843c 2e52 c03c
000002a0: 2377 b8ba a1da 2e3d 78e5 c53c e0bf 053d
000002b0: d84a e13c 4294 f93b a278 44bc 3148 8f3c
000002c0: b28d 28bc f3ec d33c 5e6f c03c b2b8 103d
000002d0: 525f b7bc ca5a e1bc 7ef1 0d3d b5c0 bdbc
000002e0: 48d5 cf3c e7ea c03c 6f15 bf3c cbff cf3c
000002f0: 618b 12bd ed9a 19ba f237 07bd 2d2e 973c
00000300: f5e0 193d 46f6 63bc 38e7 a7bc ab7b 9439
00000310: e103 853c 0cc5 29bc 4887 163a 84ef 133c
00000320: b93b d13c 8d47 153c b8a9 163d 4a27 503a
00000330: a52e 823b 1477 2f3c bb55 a13b cce8 b03c
00000340: 0eb4 caba 56fa dabc 2af1 0bbc 8939 1c3d
00000350: 7d92 453a a336 823b 126c 32bd 1e51 88bc
00000360: c1f0 91bc 9730 fe3c 3e0c ac3c 6094 2d3d
00000370: d952 d73c 01bf d0bc b1f0 59bc 9340 8c3c
00000380: e6d1 47bd 9179 8ebc 48c8 68bc cb54 a2bc
00000390: ac26 713c 8c75 e13c f7df 303c 40be 073d
000003a0: c926 243d aded bbbc f023 c3bc 5063 3abd
000003b0: fcd2 2ebd be45 b2bc 7178 6aba d57a cabc
000003c0: 1ebd 5fbc f247 28bc 990e f539 0ee6 06bc
000003d0: 3188 ab3c 91f6 f93c 9389 4b3c 726c a13c
000003e0: 147d 073d 5802 873c 3356 323d a259 953a
000003f0: 3f3e dd3c 8b86 2a3d b1b4 ea3c e8b5 db3c

module.model.5.bias f4 [64]
0.014758459 -0.012393784 -0.00927703 0.033283964 0.0013326776 0.0053693824 0.006462208 -0.031013133
-0.011273136 -0.016405344 -0.013728509 0.031337567 0.032228306 -0.017293993 -0.007232301 0.011946604
0.022076482 0.0013390721 -0.01658768 0.02322724 0.016307069 -0.040183958 -0.02342325 0.03945701
-0.0087841 -0.035416964 -0.028188918 0.021405332 0.025786763 0.04052581 -0.017432617 0.026076717
-0.0362875 0.02067694 -0.040909056 0.036231857 0.003912007 -0.02810509 0.025415285 0.0031297058
0.019763092 0.03188215 -0.03906443 -0.030828293 -0.020073991 -0.0070606726 0.009042657 0.037665244
0.0027309344 0.018364614 -0.0391718 -0.030728143 -0.01924278 0.0011447188 0.031704564 -0.03652156
0.018238872 0.03178555 0.025507845 0.005217482 -0.030969243 -0.024508204 -0.02578324 0.001518672
00000000: 77cd 713c 4c0f 4bbc affe 17bc c454 083d
00000010: 3dad ae3a a5f1 af3b eec0 d33b 410f febc
00000020: f6b2 38bc 8064 86bc 8aed 60bc d25b 003d
00000030: d401 043d 22ac 8dbc f0fc ecbb b0bb 433c
00000040: bdd9 b43c ce83 af3a e3e2 87bc 0e47 be3c
00000050: 6796 853c ef97 24bd 1ee2 bfbc ac9d 213d
00000060: 30eb 0fbc 6111 11bd 72ec e6bc 3c5a af3c
00000070: c33e d33c 64fe 253d d9ce 8ebc d79e d53c
00000080: 34a2 14bd b062 a93c 4190 27bd db67 143d
00000090: 4b30 803b a53c e6bc b733 d03c c01b 4d3b
000000a0: 35e6 a13c db96 023d 0602 20bd 9e8b fcbc
000000b0: 3672 a4bc 375d e7bb a727 143c df46 1a3d
000000c0: 7af9 323b 6371 963c 9c72 20bd 96b9 fbbc
000000d0: 09a3 9dbc 640a 963a a5dc 013d a297 15bd
000000e0: b069 953c 9131 023d d4f5 d03c 69f7 aa3b
000000f0: 36b3 fdbc 6ec5 c8bc 6037 d3bc 2d0e c73a

module.model.6.weight f4 [64]
1.0089471 0.9987119 1.0001954 1.0094014 1.0026677 0.9971798 1.0080031 1.0022464
1.0057662 0.997593 1.0022196 0.9994553 0.9942879 0.9948048 1.0070378 0.9996743
1.0040376 0.9922058 1.0042905 0.99253774 0.99042577 0.9969823 1.0122771 1.0005304
1.0038043 1.0029702 1.004724 0.9970101 0.9878774 1.0152323 1.0020511 0.99726236
0.9966434 1.0022253 0.9914623 0.99573827 0.9983346 0.99615115 1.0033803 0.988566
0.99641246 0.9997362 1.0025599 0.9949493 1.0043237 0.9962836 0.9990227 1.0008138
1.0089741 1.0010959 1.0002865 0.99712324 1.0029036 0.993622 0.99881893 0.9861778
0.9933282 0.99606776 0.99629885 1.0065267 1.0004257 1.0068007 1.0049092 0.99555916
00000000: 2e25 813f 95ab 7f3f 6706 803f 1134 813f
00000010: 6a57 803f 2d47 7f3f 3f06 813f 9c49 803f
00000020: f2bc 803f 4162 7f3f bb48 803f 4ddc 7f3f
00000030: a789 7e3f 87ab 7e3f 9de6 803f a8ea 7f3f
00000040: 4e84 803f 3301 7e3f 978c 803f f416 7e3f
00000050: 8b8c 7d3f 3b3a 7f3f 4c92 813f 6111 803f
00000060: a97c 803f 5461 803f cc9a 803f 0e3c 7f3f
00000070: 89e5 7c3f 22f3 813f 3643 803f 964c 7f3f
00000080: 0624 7f3f eb48 803f 79d0 7d3f b4e8 7e3f
00000090: db92 7f3f c303 7f3f c46e 803f a912 7d3f
000000a0: e314 7f3f b6ee 7f3f e253 803f ffb4 7e3f
000000b0: ae8d 803f 710c 7f3f f4bf 7f3f ab1a 803f
000000c0: 1026 813f e923 803f 6309 803f 7843 7f3f
000000d0: 255f 803f 035e 7e3f 99b2 7f3f 2676 7c3f
000000e0: c24a 7e3f 4cfe 7e3f 710d 7f3f ded5 803f
000000f0: f30d 803f d8de 803f dda0 803f f7dc 7e3f

module.model.6.bias f4 [64]
0.021560596 0.008208353 0.0034316191 0.020337934 0.01759118 0.023911398 0.016880821 0.008353414
0.005958714 0.007450645 0.012029115 0.003921876 0.00024589355 0.016049488 0.0091518145 0.012957432
0.011664957 0.0026367987 0.017721713 0.01053999 0.0020450598 0.019311486 0.01183443 0.005403439
0.009908319 0.02940767 0.003493891 0.016837485 0.010840783 0.020366287 0.017779449 0.021241844
0.01595534 0.014819601 0.001193765 -0.00016421125 0.01767344 0.012106712 0.009946281 0.007438741
0.008577755 0.0009777587 0.011549986 0.0051576598 0.015322088 0.00903725 0.0052518267 0.010424608
0.015520682 0.01193055 0.019483004 0.012279959 0.0039623277 0.0009010365 0.014460725 -0.0030354194
0.0016864499 0.004478572 0.017959902 0.004714285 0.0069927103 0.012962799 0.006808975 0.0024776747
00000000: d99f b03c 547c 063c 04e5 603b bd9b a63c
00000010: 611b 903c d6e1 c33c a649 8a3c c2dc 083c
00000020: 5141 c33b 8a24 f43b c415 453c 1583 803b
00000030: 46eb 8039 377a 833c 7ef1 153c 694b 543c
00000040: 601e 3f3c 24ce 2c3b 202d 913c ecaf 2c3c
00000050: 6906 063b 1f33 9e3c 32e5 413c 550f b13b
00000060: 8156 223c 5be8 f03c c4f9 643b c4ee 893c
00000070: 8a9d 313c 33d7 a63c 35a6 913c 6003 ae3c
00000080: c6b4 823c e9cd 723c 1b78 9c3a 1f30 2cb9
00000090: e4c7 903c 3b5b 463c baf5 223c afc0 f33b
000000a0: b689 0c3c 2328 803a 273c 3d3c 9601 a93b
000000b0: 7f09 7b3c f910 143c 8417 ac3b facb 2a3c
000000c0: 754a 7e3c 5b78 433c d29a 9f3c e231 493c
000000d0: 6ad6 813b 8933 6c3a adec 6c3c e3ed 46bb
000000e0: de0b dd3a fcc0 923b a520 933c 4a7a 9a3b
000000f0: 1b23 e53b eb61 543c d21d df3b 7c60 223b

module.model.6.running_mean f4 [64]
0.13002774 -0.043095514 0.44771707 0.13813566 -0.05984732 -0.5643407 0.37553298 0.21380867
0.3465446 0.2543462 -0.6043104 0.20545194 -0.2902191 -0.06268435 0.2987804 0.28145313
0.2120596 -0.5532902 0.393984 0.40143847 -0.5774494 -0.040607747 0.40633732 -0.08273025
0.19984223 -0.4237132 0.32953012 -0.07849935 0.16610657 0.2617474 0.17299305 -0.092044555
-0.6814774 -0.43315735 -0.42603278 -0.093994334 0.15827538 -0.16861951 0.32461777 -0.43613556
-0.29567483 -0.17653888 0.119619094 -0.109160036 0.16642013 -0.5232684 -0.06543254 -0.060685497
0.05796098 0.087417684 0.05705088 -0.09254095 0.43421853 -0.62713796 -0.36634368 -0.6202748
0.2664182 -0.1784773 -0.6088884 0.73586684 0.029396627 0.19711581 0.09171031 -0.00094086
00000000: fe25 053e ec84 30bd 2c3b e53e 6f73 0d3e
00000010: 7722 75bd a278 10bf dc45 c03e a9f0 5a3e
00000020: 4b6e b13e aa39 823e 16b4 1abf fe61 523e
00000030: 9997 94be a760 80bd bff9 983e a01a 903e
00000040: 2726 593e 6da4 0dbf 45b8 c93e 5889 cd3e
00000050: b9d3 13bf 4f54 26bd 720b d03e 7a6e a9bd
00000060: 71a3 4c3e f0f0 d8be 2cb8 a83e 44c4 a0bd
00000070: d717 2a3e c103 863e 1725 313e db81 bcbd
00000080: 4e75 2ebf cdc6 ddbe f820 dabe 1a80 c0bd
00000090: f112 223e 98aa 2cbe 4d34 a63e 294d dfbe
000000a0: b162 97be 9cc6 34be dbfa f43d 4c8f dfbd
000000b0: 0a6a 2a3e ebf4 05bf 7f01 86bd 5b91 78bd
000000c0: 7e68 6d3d 0b08 b33d 2fae 693d 1c86 bdbd
000000d0: e451 de3e 1d8c 20bf 6691 bbbe 54ca 1ebf
000000e0: f767 883e c1c2 36be 1ce0 1bbf c561 3c3f
000000f0: 32d1 f03c bad8 493e 9dd2 bb3d 0ca4 76ba

module.model.6.running_var f4 [64]
0.48246276 0.44706896 0.5666947 0.42943305 0.19918554 0.32404044 0.5796751 0.5792732
0.37376288 0.6020803 0.30243552 0.5233476 0.5325445 0.32617208 0.60488755 0.3613594
0.34526914 0.25297028 0.7339759 0.33693832 0.36866862 0.31068116 0.38253853 0.98284465
0.2266915 0.3259654 0.40646952 0.28111905 0.118948296 0.24423818 0.17643066 0.3591773
0.39888617 0.4557646 0.41744134 0.3254295 0.3140407 0.36009997 0.6557873 0.33132267
0.5861243 1.2828673 0.57176626 0.45061645 0.2767064 0.2780352 0.57051665 0.61341834
0.40864906 0.53085345 0.54501176 0.4936342 0.7185783 0.27141568 0.4892831 0.25355887
0.36660218 0.36301085 0.2994131 0.9525495 0.33065417 0.44127178 0.5421838 0.3449276
00000000: 5c05 f73e 39e6 e43e e712 113f a6de db3e
00000010: 4bf7 4b3e a1e8 a53e 9665 143f 404b 143f
00000020: d95d bf3e ef21 1a3f d4d8 9a3e 1cfa 053f
00000030: d654 083f 0700 a73e e9d9 1a3f 1904 b93e
00000040: 1ec7 b03e 5285 813e d8e5 3b3f 2e83 ac3e
00000050: 22c2 bc3e 9a11 9f3e 17dc c33e b59b 7b3f
00000060: d121 683e f0e4 a63e c61c d03e d6ee 8f3e
00000070: 2a9b f33d 9319 7a3e 3daa 343e 16e6 b73e
00000080: cf3a cc3e fa59 e93e dfba d53e b29e a63e
00000090: f1c9 a03e 065f b83e ade1 273f 20a3 a93e
000000a0: 3e0c 163f ff34 a43f 465f 123f 33b7 e63e
000000b0: 76ac 8d3e a15a 8e3e 610d 123f fc08 1d3f
000000c0: 733a d13e 03e6 073f e485 0b3f 9fbd fc3e
000000d0: bff4 373f fff6 8a3e 5183 fa3e 78d2 813e
000000e0: 48b3 bb3e 8fdc b93e ad4c 993e 49da 733f
000000f0: 814b a93e 60ee e13e 8fcc 0a3f 5a9a b03e

module.model.8.weight f4 [64, 64, 3, 3]
0.018957928 0.024985377 -0.014222555 0.044454362 -0.02915192 -0.00032775616 0.011077651 0.0319903
0.023705415 -0.02736907 0.015007794 0.03464944 0.011089124 0.039963532 -0.033993706 -0.009986789
0.024982635 0.019347077 -0.0014499127 0.018157138 -0.026695916 -0.032957435 0.017469496 0.019709349
0.011740783 -0.034109425 -0.009090751 0.0454887 0.005692922 0.031160194 0.033110052 -0.0051649692
0.015276223 -0.036961228 -0.024690252 -0.023365535 -0.00066756574 0.032097876 -0.0021064118 -0.04361283
-0.045841955 -0.0046033626 -0.033200327 0.032541566 0.016607702 0.018291015 -0.042634666 0.02543806
-0.023988124 -0.037207007 0.03193692 -0.01885364 -0.023055635 0.02383498 0.0076158997 0.0182554
-0.035471298 0.022893755 -0.042289775 -0.034668785 0.031088747 -0.040549066 0.0167295 -0.014869617
0.018032443 0.024386557 0.037160005 -0.025941145 0.029941402 0.007728406 0.0040336703 -0.0013127653
-0.009227421 0.0425389 0.010822441 0.0172949 0.01085686 -0.03585707 -0.023371477 0.0033166464
-0.021520758 0.0077070533 0.008623889 0.03316729 0.031262536 0.0067733875 -0.033096325 -0.035548013
0.0032782052 -0.028702188 0.026157478 0.022920089 0.019092545 0.023138994 -0.011839913 -0.008185157
0.019639274 -0.037282977 -0.033886567 -0.019961094 -0.021557737 0.035699766 0.008362458 0.011496304
0.013675333 -0.0105305305 0.010374036 -0.038686134 0.04136851 0.0213247 0.0022128287 0.024553107
-0.025903206 -0.037101246 0.04158449 -0.00081615715 0.0044606915 -0.010701445 0.002902308 -0.00029065643
-0.029012632 -0.022084853 0.011136854 -0.027065456 0.0155392205 0.028210832 0.012869137 0.011310482
-0.013638565 0.03364825 -0.01590823 -0.008570114 0.029985026 -0.011686047 0.036200088 0.018673336
-0.01702925 -0.03195421 -0.033080243 0.011099058 0.03865894 0.031913865 0.010824609 -0.029891567
-0.011540366 -0.033279072 -0.020446867 0.0044688624 -0.02813874 -0.006768515 -0.02259716 -0.042201117
0.0064321896 0.03287659 0.03371977 -0.025619714 0.013398142 -0.01377727 -0.019346613 0.0059744897
-0.01611026 0.017072989 0.0035874068 -0.0008501315 0.01015145 0.00924393 -0.016412858 -0.02281361
-0.029788682 -0.039652992 0.018201362 0.027413702 0.030256711 0.011499988 0.03897959 0.0006214204
-0.029744571 -0.034325555 -0.010462733 -0.027627418 0.038807243 0.0020916073 -0.012117944 0.021810109
0.011403658 0.024425792 -0.003724275 -0.01592116 -0.02254967 -0.010469101 -0.029257216 -0.045788124
-0.034349386 -0.03256031 -0.009555022 -0.022614479 -0.023985093 0.02237234 -0.022087095 0.021015132
-0.034423046 -0.013684215 -0.013184324 0.03469343 -0.039655387 -0.024066506 0.03694972 0.026696907
-0.00039548235 -0.0085474225 0.010687758 0.012915351 0.026204795 0.030398238 0.037744887 -0.03620599
-0.010305634 -0.010418833 0.005724309 0.006436332 0.00079093006 0.041329842 -0.0039650854 -0.006740532
-0.026754221 0.026290137 0.046181213 0.03136524 0.016851349 -0.007255178 0.018365089 -0.0039508743
-0.055125892 -0.040050387 0.004831826 0.009212271 0.0022388883 -0.0150399795 0.027005136 -0.025629673
0.012331312 -0.004085032 0.0044301576 -0.01982339 -0.037578586 -0.044367068 -0.03005342 0.007126041
-0.009886435 -0.025782399 0.0112228645 -0.020545037 0.029771136 0.029768532 -0.030702561 -0.032484923
00000000: a84d 9b3c 22ae cc3c b805 69bc c715 363d
00000010: 02d0 eebc b0d6 abb9 097f 353c 4308 033d
00000020: dc31 c23c 1a35 e0bc 40e3 753c 92ec 0d3d
00000030: 28af 353c cdb0 233d fc3c 0bbd a19f 23bc
00000040: 62a8 cc3c c37d 9e3c ff0a beba 47be 943c
00000050: 65b1 dabc 60fe 06bd 301c 8f3c 8075 a13c
00000060: 6a5c 403c 53b6 0bbd 60f1 14bc 5c52 3a3d
00000070: b18b ba3b aa43 ff3c 689e 073d e73e a9bb
00000080: 2049 7a3c a864 17bd 3643 cabc 1469 bfbc
00000090: 94ff 2eba 1079 033d ba0b 0abb 5ea3 32bd
000000a0: c6c4 3bbd ced7 96bb 11fd 07bd 4e4a 053d
000000b0: e00c 883c 0ad7 953c b0a1 2ebd 7a63 d03c
000000c0: be82 c4bc 6066 18bd 4ad0 023d f372 9abc
000000d0: 2cdf bcbc 9341 c33c cc8e f93b 598c 953c
000000e0: 5a4a 11bd af8b bb3c 0b38 2dbd db00 0ebd
000000f0: d4ad fe3c c716 26bd 4e0c 893c b29f 73bc
00000100: c6b8 933c 51c6 c73c 1735 183d 8682 d4bc
00000110: ac47 f53c 923e fd3b e12c 843b 1811 acba
00000120: 9c2e 17bc 453d 2e3d 9c50 313c 09ae 8d3c
00000130: f9e0 313c ddde 12bd 8a75 bfbc 185c 593b
00000140: 4d4c b0bc 738b fc3b 364b 0d3c 6dda 073d
00000150: 250d 003d 4bf3 dd3b 0390 07bd cb9a 11bd
00000160: 28d7 563b da20 ebbc 3548 d63c e9c2 bb3c
00000170: f867 9c3c fd8d bd3c 32fc 41bc 091b 06bc
00000180: 8be2 a03c 09b6 18bd a4cc 0abd 7385 a3bc
00000190: da99 b0bc eb39 123d b102 093c fe5a 3c3c
000001a0: 810e 603c 3f88 2cbc dcf7 293c 5a75 1ebd
000001b0: 0772 293d 23b1 ae3c 1b05 113b 9923 c93c
000001c0: f632 d4bc 7af7 17bd 8054 2a3d 61f3 55ba
000001d0: fe2a 923b 1d55 2fbc a634 3e3b 3f63 98b9
000001e0: e6ab edbc 4beb b4bc 5a77 363c 60b8 ddbc
000001f0: 3798 7e3c 671a e73c 13d9 523c 9a4f 393c
00000200: 4a74 5fbc bfd2 093d fa51 82bc aa69 0cbc
00000210: 28a3 f53c d576 3fbc 8b46 143d d3f8 983c
00000220: ed80 8bbc 6be2 02bd 267f 07bd d3d8 353c
00000230: d658 1e3d 1db8 023d b359 313c 29df f4bc
00000240: ce13 3dbc a34f 08bd 3080 a7bc 896f 923b
00000250: 3783 e6bc 6bca ddbb ae1d b9bc 14db 2cbd
00000260: 1ec5 d23b 9aa9 063d be1d 0a3d 6fe0 d1bc
00000270: e183 5b3c 0fba 61bc ca7c 9ebc a7c5 c33b
00000280: aaf9 83bc a7dc 8b3c b31a 6b3b 5cdb 5eba
00000290: 4452 263c da73 173c 4274 86bc 9ce3 babc
000002a0: 6507 f4bc 2d6b 22bd 061b 953c b392 e03c
000002b0: ecdc f73c 726a 3c3c 10a9 1f3d d1e6 223a
000002c0: e3aa f3bc f498 0cbd e26b 2bbc e552 e2bc
000002d0: 58f4 1e3d 5913 093b 578a 46bc 1dab b23c
000002e0: 69d6 3a3c 9918 c83c f712 74bb 186d 82bc
000002f0: 16ba b8bc 9886 2bbc d4ac efbc 548c 3bbd
00000300: f1b1 0cbd f65d 05bd ab8c 1cbc 0042 b9bc
00000310: 637c c4bc 3346 b73c ffef b4bc ed27 ac3c
00000320: 2eff 0cbd c233 60bc 1003 58bc b31a 0e3d
00000330: b06d 22bd 1f27 c5bc 9758 173d 79b3 da3c
00000340: be58 cfb9 7d0a 0cbc b51b 2f3c e99a 533c
00000350: 70ab d63c ba05 f93c 629a 1a3d bb4c 14bd
00000360: f6d8 28bc c1b3 2abc fc92 bb3b dee7 d23b
00000370: 6b56 4f3a 7b49 293d 8ced 81bb aedf dcbb
00000380: ab2b dbbc 6a5e d73c 8328 3d3d d778 003d
00000390: d70b 8a3c d8bc edbb 6272 963c 5676 81bb
000003a0: b0cb 61bd e00b 24bd 4b54 9e3b 11ef 163c
000003b0: 50ba 123b 3f6a 76bc e039 dd3c 52f5 d1bc
000003c0: 4509 4a3c bbdb 85bb db2a 913b a964 a2bc
000003d0: 01ec 19bd 3eba 35bd 9732 f6bc 9181 e93b
000003e0: b7fa 21bc 9c35 d3bc 1be0 373c 114e a8bc
000003f0: 99e2 f33c 23dd f33c f083 fbbc e90e 05bd

module.model.8.bias f4 [64]
-0.0052026957 0.033647608 0.033355393 -0.015267265 0.0037445005 0.014446655 -0.030698871 -0.013551789
0.025470106 0.032037098 0.037690226 0.016470073 -0.01404176 -0.003959676 -0.00870842 0.0014706925
-0.035457436 0.035318576 -0.011272559 0.0076294322 0.009487242 -0.0071065095 -0.019985704 0.010583195
0.026238734 0.019043827 0.00441015 -0.029436119 0.021429665 -0.0029859792 -0.03197764 0.011666021
-0.028244171 0.03151472 0.014641367 -0.00480278 -0.034245815 -0.024056112 0.004953429 0.014005559
0.029405165 -0.0006195199 0.013186025 -0.03703483 -0.020382438 -0.03005424 0.009209898 -0.0413237
0.02086785 0.0375416 0.035700843 0.019056274 -0.02676044 0.017252102 0.03724839 0.010034408
0.017743526 0.017698102 -0.012228624 -0.020624705 0.030243225 -0.021316927 -0.005705228 -0.0015723825
00000000: 607b aabb 13d2 093d aa9f 083d 8d23 7abc
00000010: 4b66 753b aab1 6c3c 337c fbbc 5308 5ebc
00000020: afa6 d03c 5539 033d 1161 1a3d 3fec 863c
00000030: 690f 66bc 2bc0 81bb c3ad 0ebc 40c4 c03a
00000040: d13b 11bd 36aa 103d 8ab0 38bc 5100 fa3b
00000050: 6170 1b3c b9dd e8bb 0fb9 a3bc 2365 2d3c
00000060: 9df2 d63c cd01 9c3c 0583 903b 0424 f1bc
00000070: 448d af3c 6bb0 43bb fcfa 02bd d722 3f3c
00000080: 5260 e7bc 9415 013d 58e2 6f3c a460 9dbb
00000090: 5745 0cbd 5311 c5bc 6050 a23b 9277 653c
000000a0: 1ae3 f03c 4767 22ba 330a 583c d5b1 17bd
000000b0: 12f9 a6bc 4f34 f6bc 1de5 163c 0a43 29bd
000000c0: 0ef3 aa3c 39c5 193d 0c3b 123d e71b 9c3c
000000d0: b638 dbbc 4854 8d3c c591 183d 5c67 243c
000000e0: df5a 913c 9cfb 903c 915a 48bc 24f5 a8bc
000000f0: a4c0 f73c d6a0 aebc ecf2 babb 6718 ceba

module.model.9.weight f4 [64]
0.99550015 0.9927156 0.99753 0.99375886 0.99402815 0.9932641 0.99288744 0.99625784
0.99498075 0.98768586 0.9939208 0.9998225 0.99382967 0.9933302 0.99680185 0.9943345
0.99717593 0.9955793 0.9928914 0.995598 0.9948295 0.9883617 0.9943632 0.9905402
0.9933113 0.9954314 0.99500084 0.9954999 0.99590486 0.9943826 0.9953918 0.9948686
0.9917959 1.0018178 0.9906305 0.9951902 0.99797976 0.99513 0.9896059 0.9938027
0.99562496 0.9951317 0.99424523 0.9938249 0.99562746 0.99381787 0.99479496 0.99585
0.9943499 0.98864824 0.9865322 0.9941456 0.9984865 0.9926015 0.99575436 0.9942236
0.9939981 0.9951097 0.98307097 0.997354 0.99171907 0.99413127 0.9963443 0.9938758
00000000: 19d9 7e3f 9c22 7e3f 205e 7f3f fb66 7e3f
00000010: a178 7e3f 8e46 7e3f df2d 7e3f c10a 7f3f
00000020: 0fb7 7e3f fbd8 7c3f 9871 7e3f 5ef4 7f3f
00000030: 9f6b 7e3f e34a 7e3f 682e 7f3f b58c 7e3f
00000040: ec46 7f3f 49de 7e3f 212e 7e3f 83df 7e3f
00000050: 25ad 7e3f 4605 7d3f 968e 7e3f 0b94 7d3f
00000060: a649 7e3f 98d4 7e3f 60b8 7e3f 15d9 7e3f
00000070: 9ff3 7e3f dc8f 7e3f ffd1 7e3f b5af 7e3f
00000080: 56e6 7d3f 913b 803f f699 7d3f c9c4 7e3f
00000090: 9a7b 7f3f d7c0 7e3f d056 7d3f db69 7e3f
000000a0: 47e1 7e3f f3c0 7e3f db86 7e3f 4f6b 7e3f
000000b0: 71e1 7e3f d96a 7e3f e2aa 7e3f 07f0 7e3f
000000c0: b78d 7e3f 0d18 7d3f 608d 7c3f 5380 7e3f
000000d0: d09c 7f3f 221b 7e3f c2e9 7e3f 7085 7e3f
000000e0: a976 7e3f 82bf 7e3f 8aaa 7b3f 9752 7f3f
000000f0: 4de1 7d3f 637f 7e3f 6c10 7f3f a56e 7e3f

module.model.9.bias f4 [64]
-0.0010594754 0.005400638 0.0013726595 0.005106825 0.0053079743 -0.003577194 -0.0030504845 0.003362023
0.0020001 0.0058298665 0.0058315634 0.008687831 -0.0011447696 0.0006638871 0.008415489 -0.0023262075
0.004036208 -0.0011789758 -0.0049958336 -0.002640382 0.018516779 0.0011828737 0.0048487955 -0.0003704438
0.00030115023 0.00940078 0.003750299 0.0064258175 0.007979564 0.0025040344 -0.00249201 -0.006436001
0.0012876618 0.015908688 0.0007986505 -0.004609431 -0.0045886147 -0.0034293965 -0.00787598 0.0002629553
0.0034533134 0.0034030823 -0.0039959466 -0.005063088 -0.0016002586 0.0019713573 0.0005174525 0.015511126
0.0017813022 -0.0037333593 0.009745776 -3.864091e-05 0.009401831 -0.0048155696 -0.00724196 -0.00030425578
0.001228397 0.0037590945 0.0042401897 0.002261394 -0.008530881 0.0025452257 -0.004425256 0.0028727655
00000000: 18de 8aba d6f7 b03b cfea b33a 2757 a73b
00000010: 84ee ad3b 5b6f 6abb a3ea 47bb 6355 5c3b
00000020: 1c14 033b 7708 bf3b b316 bf3b 6857 0e3c
00000030: 180c 96ba b608 2e3a 1fe1 093c 4973 18bb
00000040: 2b42 843b dd87 9aba 17b4 a3bb 420a 2dbb
00000050: 80b0 973c a80a 9b3a a5e2 9e3b 2038 c2b9
00000060: b3e3 9d39 bb05 1a3c 94c7 753b aa8f d23b
00000070: b8bc 023c ba1a 243b fd50 23bb 17e5 d2bb
00000080: c3c6 a83a f052 823c 875c 513a b60a 97bb
00000090: 175c 96bb babf 60bb 410a 01bc 43dd 8939
000000a0: fc50 623b 3f06 5f3b 6ef0 82bb 43e8 a5bb
000000b0: c5bf d1ba e331 013b a6a5 073a 6122 7e3c
000000c0: 957a e93a 60ab 74bb bfac 1f3c 5c12 22b8
000000d0: 230a 1a3c edcb 9dbb f74d edbb 8584 9fb9
000000e0: 2a02 a13a 245b 763b 4af1 8a3b e533 143b
000000f0: 1cc5 0bbc cdcd 263b bd01 91bb 0245 3c3b

module.model.9.running_mean f4 [64]
-0.306709 -0.17465225 -0.20385998 0.42681333 0.017343776 0.13920045 0.27768242 -0.11224182
-0.050141994 0.45277682 -0.0009930491 -0.25339592 -0.008516239 -0.04367922 -0.20876485 -0.24992047
-0.39462253 -0.36523053 0.33346772 -0.19101179 0.39482382 0.19885062 0.2775824 0.48838797
0.056134783 -0.07594153 -0.25052828 -0.116084404 -0.06262611 -0.2555281 -0.14033781 0.15127875
0.33050522 -0.11456797 -0.24448699 -0.30349252 0.20694473 -0.5440724 -0.13171467 0.1434421
-0.13102889 0.36695933 -0.24931677 0.4977768 -0.22348705 -0.1606822 -0.17770721 0.3057443
-0.1564267 0.2982548 0.17764181 0.7088057 0.021932447 -0.42298916 -0.27604887 -0.06523701
-0.4411117 0.017459225 0.15890399 0.17831841 -0.0038357645 0.41730198 -0.13642 -0.019412985
00000000: f608 9dbe 0ad8 32be acc0 50be 4787 da3e
00000010: 8914 8e3c 908a 0e3e 642c 8e3e 0adf e5bd
00000020: b161 4dbd 5dd2 e73e 3329 82ba 1cbd 81be
00000030: b287 0bbc fbe8 32bd 74c6 55be 27eb 7fbe
00000040: f70b cabe 7fff babe 48bc aa3e 9898 43be
00000050: 5926 ca3e 7f9f 4b3e 481f 8e3e fd0d fa3e
00000060: 96ed 653d 3c87 9bbd 3e45 80be a9bd edbd
00000070: 1e42 80bd 94d4 82be b7b4 0fbe d1e8 1a3e
00000080: fb37 a93e 9da2 eabd cc5a 7abe 5f63 9bbe
00000090: 52e9 533e 5448 0bbf 36e0 06be 7ce2 123e
000000a0: 702c 06be 18e2 bb3e e54c 7fbe 9adc fe3e
000000b0: cad9 64be e089 24be e1f8 35be 848a 9c3e
000000c0: 522e 20be dab4 983e bce7 353e 4a74 353f
000000d0: adab b33c 0992 d8be 4756 8dbe fb9a 85bd
000000e0: 65d9 e1be a606 8f3c bab7 223e 1a99 363e
000000f0: 7361 7bbb 9ba8 d53e afb1 0bbe fb07 9fbc

module.model.9.running_var f4 [64]
0.94572645 0.50984824 0.6197561 0.8206377 0.7736666 0.48406243 0.9591115 0.9921747
0.63306814 0.90025157 0.5695122 0.5091747 0.6158965 0.8621974 0.5936746 0.90622884
0.724666 0.94871163 0.9595349 0.67946106 0.967699 0.7461448 0.7058263 0.98547894
0.65741885 0.83399665 1.0002377 0.6140472 0.64904743 0.28495204 0.71666086 1.1657143
0.7718914 0.3582554 0.35923252 0.6203332 0.9493043 1.3514574 0.63041383 0.6382864
1.0180085 0.81562924 0.59989524 1.1204615 1.4472845 0.57037276 0.68620855 1.3124405
0.6681699 1.0570688 0.70066804 0.9450313 0.8260793 1.0316597 0.85159534 0.69054294
0.6145453 0.58203715 0.65546304 0.47276002 0.8924747 0.7880283 0.93824905 0.8150176
00000000: 211b 723f 6a85 023f 56a8 1e3f 5015 523f
00000010: 040f 463f 08d7 f73e 5588 753f 29ff 7d3f
00000020: c110 223f e376 663f 8dcb 113f 4659 023f
00000030: 65ab 1d3f f8b8 5c3f 0ffb 173f 9dfe 673f
00000040: b683 393f c4de 723f 14a4 753f 29f1 2d3f
00000050: 1fbb 773f 5803 3f3f 08b1 343f 5948 7c3f
00000060: 9a4c 283f ce80 553f ca07 803f 3332 1d3f
00000070: f927 263f 3ce5 913e 1677 373f 2036 953f
00000080: ad9a 453f 406d b73e 53ed b73e 28ce 1e3f
00000090: 9b05 733f 8efc ac3f cd62 213f bd66 233f
000000a0: 1a4e 823f 14cd 503f bc92 193f 486b 8f3f
000000b0: 9e40 b93f f303 123f 5dab 2f3f 0dfe a73f
000000c0: 2f0d 2b3f 084e 873f fb5e 333f 92ed 713f
000000d0: ef79 533f 6d0d 843f 2702 5a3f 6cc7 303f
000000e0: d752 1d3f 6300 153f 6dcc 273f 9a0d f23e
000000f0: 3979 643f 39bc 493f 1731 703f fea4 503f
